…
├────────────────────────┼─────────────────────┼─────────────┼─────────────────────┤
│ conv1_relu             │ (None, 112, 112,    │           0 │ conv1_bn[0][0]      │
│ (Activation)           │ 64)                 │             │                     │
├────────────────────────┼─────────────────────┼─────────────┼─────────────────────┤
│ zero_padding2d_1       │ (None, 114, 114,    │           0 │ conv1_relu[0][0]    │
│ (ZeroPadding2D)        │ 64)                 │             │                     │
├────────────────────────┼─────────────────────┼─────────────┼─────────────────────┤
│ pool1 (MaxPooling2D)   │ (None, 56, 56, 64)  │           0 │ zero_padding2d_1[0… │
├────────────────────────┼─────────────────────┼─────────────┼─────────────────────┤
│ conv2_block1_0_bn      │ (None, 56, 56, 64)  │         256 │ pool1[0][0]         │
│ (BatchNormalization)   │                     │             │                     │
├────────────────────────┼─────────────────────┼─────────────┼─────────────────────┤
│ conv2_block1_0_relu    │ (None, 56, 56, 64)  │           0 │ conv2_block1_0_bn[… │
│ (Activation)           │                     │             │                     │
├────────────────────────┼─────────────────────┼─────────────┼─────────────────────┤
│ conv2_block1_1_conv    │ (None, 56, 56, 128) │       8,192 │ conv2_block1_0_rel… │
│ (Conv2D)               │                     │             │                     │
├────────────────────────┼─────────────────────┼─────────────┼─────────────────────┤
│ conv2_block1_1_bn      │ (None, 56, 56, 128) │         512 │ conv2_block1_1_con… │
│ (BatchNormalization)   │                     │             │                     │
├────────────────────────┼─────────────────────┼─────────────┼─────────────────────┤
│ conv2_block1_1_relu    │ (None, 56, 56, 128) │           0 │ conv2_block1_1_bn[… │
│ (Activation)           │                     │             │                     │
├────────────────────────┼─────────────────────┼─────────────┼─────────────────────┤
│ conv2_block1_2_conv    │ (None, 56, 56, 32)  │      36,864 │ conv2_block1_1_rel… │
│ (Conv2D)               │                     │             │                     │
├────────────────────────┼─────────────────────┼─────────────┼─────────────────────┤
│ conv2_block1_concat    │ (None, 56, 56, 96)  │           0 │ pool1[0][0],        │
│ (Concatenate)          │                     │             │ conv2_block1_2_con… │
├────────────────────────┼─────────────────────┼─────────────┼─────────────────────┤
│ conv2_block2_0_bn      │ (None, 56, 56, 96)  │         384 │ conv2_block1_conca… │
│ (BatchNormalization)   │                     │             │                     │
├────────────────────────┼─────────────────────┼─────────────┼─────────────────────┤
│ conv2_block2_0_relu    │ (None, 56, 56, 96)  │           0 │ conv2_block2_0_bn[… │
│ (Activation)           │                     │             │                     │
├────────────────────────┼─────────────────────┼─────────────┼─────────────────────┤
│ conv2_block2_1_conv    │ (None, 56, 56, 128) │      12,288 │ conv2_block2_0_rel… │
│ (Conv2D)               │                     │             │                     │
├────────────────────────┼─────────────────────┼─────────────┼─────────────────────┤
│ conv2_block2_1_bn      │ (None, 56, 56, 128) │         512 │ conv2_block2_1_con… │
│ (BatchNormalization)   │                     │             │                     │
├────────────────────────┼─────────────────────┼─────────────┼─────────────────────┤
│ conv2_block2_1_relu    │ (None, 56, 56, 128) │           0 │ conv2_block2_1_bn[… │
│ (Activation)           │                     │             │                     │
├────────────────────────┼─────────────────────┼─────────────┼─────────────────────┤
│ conv2_block2_2_conv    │ (None, 56, 56, 32)  │      36,864 │ conv2_block2_1_rel… │
│ (Conv2D)               │                     │             │                     │
├────────────────────────┼─────────────────────┼─────────────┼─────────────────────┤
│ conv2_block2_concat    │ (None, 56, 56, 128) │           0 │ conv2_block1_conca… │
│ (Concatenate)          │                     │             │ conv2_block2_2_con… │
├────────────────────────┼─────────────────────┼─────────────┼─────────────────────┤
│ conv2_block3_0_bn      │ (None, 56, 56, 128) │         512 │ conv2_block2_conca… │
│ (BatchNormalization)   │                     │             │                     │
├────────────────────────┼─────────────────────┼─────────────┼─────────────────────┤
│ conv2_block3_0_relu    │ (None, 56, 56, 128) │           0 │ conv2_block3_0_bn[… │
│ (Activation)           │                     │             │                     │
├────────────────────────┼─────────────────────┼─────────────┼─────────────────────┤
│ conv2_block3_1_conv    │ (None, 56, 56, 128) │      16,384 │ conv2_block3_0_rel… │
│ (Conv2D)               │                     │             │                     │
├────────────────────────┼─────────────────────┼─────────────┼─────────────────────┤
│ conv2_block3_1_bn      │ (None, 56, 56, 128) │         512 │ conv2_block3_1_con… │
│ (BatchNormalization)   │                     │             │                     │
├────────────────────────┼─────────────────────┼─────────────┼─────────────────────┤
│ conv2_block3_1_relu    │ (None, 56, 56, 128) │           0 │ conv2_block3_1_bn[… │
│ (Activation)           │                     │             │                     │
├────────────────────────┼─────────────────────┼─────────────┼─────────────────────┤
│ conv2_block3_2_conv    │ (None, 56, 56, 32)  │      36,864 │ conv2_block3_1_rel… │
│ (Conv2D)               │                     │             │                     │
├────────────────────────┼─────────────────────┼─────────────┼─────────────────────┤
│ conv2_block3_concat    │ (None, 56, 56, 160) │           0 │ conv2_block2_conca… │
│ (Concatenate)          │                     │             │ conv2_block3_2_con… │
├────────────────────────┼─────────────────────┼─────────────┼─────────────────────┤
│ conv2_block4_0_bn      │ (None, 56, 56, 160) │         640 │ conv2_block3_conca… │
│ (BatchNormalization)   │                     │             │                     │
├────────────────────────┼─────────────────────┼─────────────┼─────────────────────┤
│ conv2_block4_0_relu    │ (None, 56, 56, 160) │           0 │ conv2_block4_0_bn[… │
│ (Activation)           │                     │             │                     │
├────────────────────────┼─────────────────────┼─────────────┼─────────────────────┤
│ conv2_block4_1_conv    │ (None, 56, 56, 128) │      20,480 │ conv2_block4_0_rel… │
│ (Conv2D)               │                     │             │                     │
├────────────────────────┼─────────────────────┼─────────────┼─────────────────────┤
│ conv2_block4_1_bn      │ (None, 56, 56, 128) │         512 │ conv2_block4_1_con… │
│ (BatchNormalization)   │                     │             │                     │
├────────────────────────┼─────────────────────┼─────────────┼─────────────────────┤
│ conv2_block4_1_relu    │ (None, 56, 56, 128) │           0 │ conv2_block4_1_bn[… │
│ (Activation)           │                     │             │                     │
├────────────────────────┼─────────────────────┼─────────────┼─────────────────────┤
│ conv2_block4_2_conv    │ (None, 56, 56, 32)  │      36,864 │ conv2_block4_1_rel… │
│ (Conv2D)               │                     │             │                     │
├────────────────────────┼─────────────────────┼─────────────┼─────────────────────┤
│ conv2_block4_concat    │ (None, 56, 56, 192) │           0 │ conv2_block3_conca… │
│ (Concatenate)          │                     │             │ conv2_block4_2_con… │
├────────────────────────┼─────────────────────┼─────────────┼─────────────────────┤
│ conv2_block5_0_bn      │ (None, 56, 56, 192) │         768 │ conv2_block4_conca… │
│ (BatchNormalization)   │                     │             │                     │
├────────────────────────┼─────────────────────┼─────────────┼─────────────────────┤
│ conv2_block5_0_relu    │ (None, 56, 56, 192) │           0 │ conv2_block5_0_bn[… │
│ (Activation)           │                     │             │                     │
├────────────────────────┼─────────────────────┼─────────────┼─────────────────────┤
│ conv2_block5_1_conv    │ (None, 56, 56, 128) │      24,576 │ conv2_block5_0_rel… │
│ (Conv2D)               │                     │             │                     │
├────────────────────────┼─────────────────────┼─────────────┼─────────────────────┤
│ conv2_block5_1_bn      │ (None, 56, 56, 128) │         512 │ conv2_block5_1_con… │
│ (BatchNormalization)   │                     │             │                     │
├────────────────────────┼─────────────────────┼─────────────┼─────────────────────┤
│ conv2_block5_1_relu    │ (None, 56, 56, 128) │           0 │ conv2_block5_1_bn[… │
│ (Activation)           │                     │             │                     │
├────────────────────────┼─────────────────────┼─────────────┼─────────────────────┤
│ conv2_block5_2_conv    │ (None, 56, 56, 32)  │      36,864 │ conv2_block5_1_rel… │
│ (Conv2D)               │                     │             │                     │
├────────────────────────┼─────────────────────┼─────────────┼─────────────────────┤
│ conv2_block5_concat    │ (None, 56, 56, 224) │           0 │ conv2_block4_conca… │
│ (Concatenate)          │                     │             │ conv2_block5_2_con… │
├────────────────────────┼─────────────────────┼─────────────┼─────────────────────┤
│ conv2_block6_0_bn      │ (None, 56, 56, 224) │         896 │ conv2_block5_conca… │
│ (BatchNormalization)   │                     │             │                     │
├────────────────────────┼─────────────────────┼─────────────┼─────────────────────┤
│ conv2_block6_0_relu    │ (None, 56, 56, 224) │           0 │ conv2_block6_0_bn[… │
│ (Activation)           │                     │             │                     │
├────────────────────────┼─────────────────────┼─────────────┼─────────────────────┤
│ conv2_block6_1_conv    │ (None, 56, 56, 128) │      28,672 │ conv2_block6_0_rel… │
│ (Conv2D)               │                     │             │                     │
├────────────────────────┼─────────────────────┼─────────────┼─────────────────────┤
│ conv2_block6_1_bn      │ (None, 56, 56, 128) │         512 │ conv2_block6_1_con… │
│ (BatchNormalization)   │                     │             │                     │
├────────────────────────┼─────────────────────┼─────────────┼─────────────────────┤
│ conv2_block6_1_relu    │ (None, 56, 56, 128) │           0 │ conv2_block6_1_bn[… │
│ (Activation)           │                     │             │                     │
├────────────────────────┼─────────────────────┼─────────────┼─────────────────────┤
│ conv2_block6_2_conv    │ (None, 56, 56, 32)  │      36,864 │ conv2_block6_1_rel… │
│ (Conv2D)               │                     │             │                     │
├────────────────────────┼─────────────────────┼─────────────┼─────────────────────┤
│ conv2_block6_concat    │ (None, 56, 56, 256) │           0 │ conv2_block5_conca… │
│ (Concatenate)          │                     │             │ conv2_block6_2_con… │
├────────────────────────┼─────────────────────┼─────────────┼─────────────────────┤
│ pool2_bn               │ (None, 56, 56, 256) │       1,024 │ conv2_block6_conca… │
│ (BatchNormalization)   │                     │             │                     │
├────────────────────────┼─────────────────────┼─────────────┼─────────────────────┤
│ pool2_relu             │ (None, 56, 56, 256) │           0 │ pool2_bn[0][0]      │
│ (Activation)           │                     │             │                     │
├────────────────────────┼─────────────────────┼─────────────┼─────────────────────┤
│ pool2_conv (Conv2D)    │ (None, 56, 56, 128) │      32,768 │ pool2_relu[0][0]    │
├────────────────────────┼─────────────────────┼─────────────┼─────────────────────┤
│ pool2_pool             │ (None, 28, 28, 128) │           0 │ pool2_conv[0][0]    │
│ (AveragePooling2D)     │                     │             │                     │
├────────────────────────┼─────────────────────┼─────────────┼─────────────────────┤
│ conv3_block1_0_bn      │ (None, 28, 28, 128) │         512 │ pool2_pool[0][0]    │
│ (BatchNormalization)   │                     │             │                     │
├────────────────────────┼─────────────────────┼─────────────┼─────────────────────┤
│ conv3_block1_0_relu    │ (None, 28, 28, 128) │           0 │ conv3_block1_0_bn[… │
│ (Activation)           │                     │             │                     │
├────────────────────────┼─────────────────────┼─────────────┼─────────────────────┤
│ conv3_block1_1_conv    │ (None, 28, 28, 128) │      16,384 │ conv3_block1_0_rel… │
│ (Conv2D)               │                     │             │                     │
├────────────────────────┼─────────────────────┼─────────────┼─────────────────────┤
│ conv3_block1_1_bn      │ (None, 28, 28, 128) │         512 │ conv3_block1_1_con… │
│ (BatchNormalization)   │                     │             │                     │
├────────────────────────┼─────────────────────┼─────────────┼─────────────────────┤
│ conv3_block1_1_relu    │ (None, 28, 28, 128) │           0 │ conv3_block1_1_bn[… │
│ (Activation)           │                     │             │                     │
├────────────────────────┼─────────────────────┼─────────────┼─────────────────────┤
│ conv3_block1_2_conv    │ (None, 28, 28, 32)  │      36,864 │ conv3_block1_1_rel… │
│ (Conv2D)               │                     │             │                     │
├────────────────────────┼─────────────────────┼─────────────┼─────────────────────┤
│ conv3_block1_concat    │ (None, 28, 28, 160) │           0 │ pool2_pool[0][0],   │
│ (Concatenate)          │                     │             │ conv3_block1_2_con… │
├────────────────────────┼─────────────────────┼─────────────┼─────────────────────┤
│ conv3_block2_0_bn      │ (None, 28, 28, 160) │         640 │ conv3_block1_conca… │
│ (BatchNormalization)   │                     │             │                     │
├────────────────────────┼─────────────────────┼─────────────┼─────────────────────┤
│ conv3_block2_0_relu    │ (None, 28, 28, 160) │           0 │ conv3_block2_0_bn[… │
│ (Activation)           │                     │             │                     │
├────────────────────────┼─────────────────────┼─────────────┼─────────────────────┤
│ conv3_block2_1_conv    │ (None, 28, 28, 128) │      20,480 │ conv3_block2_0_rel… │
│ (Conv2D)               │                     │             │                     │
├────────────────────────┼─────────────────────┼─────────────┼─────────────────────┤
│ conv3_block2_1_bn      │ (None, 28, 28, 128) │         512 │ conv3_block2_1_con… │
│ (BatchNormalization)   │                     │             │                     │
├────────────────────────┼─────────────────────┼─────────────┼─────────────────────┤
│ conv3_block2_1_relu    │ (None, 28, 28, 128) │           0 │ conv3_block2_1_bn[… │
│ (Activation)           │                     │             │                     │
├────────────────────────┼─────────────────────┼─────────────┼─────────────────────┤
│ conv3_block2_2_conv    │ (None, 28, 28, 32)  │      36,864 │ conv3_block2_1_rel… │
│ (Conv2D)               │                     │             │                     │
├────────────────────────┼─────────────────────┼─────────────┼─────────────────────┤
│ conv3_block2_concat    │ (None, 28, 28, 192) │           0 │ conv3_block1_conca… │
│ (Concatenate)          │                     │             │ conv3_block2_2_con… │
├────────────────────────┼─────────────────────┼─────────────┼─────────────────────┤
│ conv3_block3_0_bn      │ (None, 28, 28, 192) │         768 │ conv3_block2_conca… │
│ (BatchNormalization)   │                     │             │                     │
├────────────────────────┼─────────────────────┼─────────────┼─────────────────────┤
│ conv3_block3_0_relu    │ (None, 28, 28, 192) │           0 │ conv3_block3_0_bn[… │
│ (Activation)           │                     │             │                     │
├────────────────────────┼─────────────────────┼─────────────┼─────────────────────┤
│ conv3_block3_1_conv    │ (None, 28, 28, 128) │      24,576 │ conv3_block3_0_rel… │
│ (Conv2D)               │                     │             │                     │
├────────────────────────┼─────────────────────┼─────────────┼─────────────────────┤
│ conv3_block3_1_bn      │ (None, 28, 28, 128) │         512 │ conv3_block3_1_con… │
│ (BatchNormalization)   │                     │             │                     │
├────────────────────────┼─────────────────────┼─────────────┼─────────────────────┤
│ conv3_block3_1_relu    │ (None, 28, 28, 128) │           0 │ conv3_block3_1_bn[… │
│ (Activation)           │                     │             │                     │
├────────────────────────┼─────────────────────┼─────────────┼─────────────────────┤
│ conv3_block3_2_conv    │ (None, 28, 28, 32)  │      36,864 │ conv3_block3_1_rel… │
│ (Conv2D)               │                     │             │                     │
├────────────────────────┼─────────────────────┼─────────────┼─────────────────────┤
│ conv3_block3_concat    │ (None, 28, 28, 224) │           0 │ conv3_block2_conca… │
│ (Concatenate)          │                     │             │ conv3_block3_2_con… │
├────────────────────────┼─────────────────────┼─────────────┼─────────────────────┤
│ conv3_block4_0_bn      │ (None, 28, 28, 224) │         896 │ conv3_block3_conca… │
│ (BatchNormalization)   │                     │             │                     │
├────────────────────────┼─────────────────────┼─────────────┼─────────────────────┤
│ conv3_block4_0_relu    │ (None, 28, 28, 224) │           0 │ conv3_block4_0_bn[… │
│ (Activation)           │                     │             │                     │
├────────────────────────┼─────────────────────┼─────────────┼─────────────────────┤
│ conv3_block4_1_conv    │ (None, 28, 28, 128) │      28,672 │ conv3_block4_0_rel… │
│ (Conv2D)               │                     │             │                     │
├────────────────────────┼─────────────────────┼─────────────┼─────────────────────┤
│ conv3_block4_1_bn      │ (None, 28, 28, 128) │         512 │ conv3_block4_1_con… │
│ (BatchNormalization)   │                     │             │                     │
├────────────────────────┼─────────────────────┼─────────────┼─────────────────────┤
│ conv3_block4_1_relu    │ (None, 28, 28, 128) │           0 │ conv3_block4_1_bn[… │
│ (Activation)           │                     │             │                     │
├────────────────────────┼─────────────────────┼─────────────┼─────────────────────┤
│ conv3_block4_2_conv    │ (None, 28, 28, 32)  │      36,864 │ conv3_block4_1_rel… │
│ (Conv2D)               │                     │             │                     │
├────────────────────────┼─────────────────────┼─────────────┼─────────────────────┤
│ conv3_block4_concat    │ (None, 28, 28, 256) │           0 │ conv3_block3_conca… │
│ (Concatenate)          │                     │             │ conv3_block4_2_con… │
├────────────────────────┼─────────────────────┼─────────────┼─────────────────────┤
│ conv3_block5_0_bn      │ (None, 28, 28, 256) │       1,024 │ conv3_block4_conca… │
│ (BatchNormalization)   │                     │             │                     │
├────────────────────────┼─────────────────────┼─────────────┼─────────────────────┤
│ conv3_block5_0_relu    │ (None, 28, 28, 256) │           0 │ conv3_block5_0_bn[… │
│ (Activation)           │                     │             │                     │
├────────────────────────┼─────────────────────┼─────────────┼─────────────────────┤
│ conv3_block5_1_conv    │ (None, 28, 28, 128) │      32,768 │ conv3_block5_0_rel… │
│ (Conv2D)               │                     │             │                     │
├────────────────────────┼─────────────────────┼─────────────┼─────────────────────┤
│ conv3_block5_1_bn      │ (None, 28, 28, 128) │         512 │ conv3_block5_1_con… │
│ (BatchNormalization)   │                     │             │                     │
├────────────────────────┼─────────────────────┼─────────────┼─────────────────────┤
│ conv3_block5_1_relu    │ (None, 28, 28, 128) │           0 │ conv3_block5_1_bn[… │
│ (Activation)           │                     │             │                     │
├────────────────────────┼─────────────────────┼─────────────┼─────────────────────┤
│ conv3_block5_2_conv    │ (None, 28, 28, 32)  │      36,864 │ conv3_block5_1_rel… │
│ (Conv2D)               │                     │             │                     │
├────────────────────────┼─────────────────────┼─────────────┼─────────────────────┤
│ conv3_block5_concat    │ (None, 28, 28, 288) │           0 │ conv3_block4_conca… │
│ (Concatenate)          │                     │             │ conv3_block5_2_con… │
├────────────────────────┼─────────────────────┼─────────────┼─────────────────────┤
│ conv3_block6_0_bn      │ (None, 28, 28, 288) │       1,152 │ conv3_block5_conca… │
│ (BatchNormalization)   │                     │             │                     │
├────────────────────────┼─────────────────────┼─────────────┼─────────────────────┤
│ conv3_block6_0_relu    │ (None, 28, 28, 288) │           0 │ conv3_block6_0_bn[… │
│ (Activation)           │                     │             │                     │
├────────────────────────┼─────────────────────┼─────────────┼─────────────────────┤
│ conv3_block6_1_conv    │ (None, 28, 28, 128) │      36,864 │ conv3_block6_0_rel… │
│ (Conv2D)               │                     │             │                     │
├────────────────────────┼─────────────────────┼─────────────┼─────────────────────┤
│ conv3_block6_1_bn      │ (None, 28, 28, 128) │         512 │ conv3_block6_1_con… │
│ (BatchNormalization)   │                     │             │                     │
├────────────────────────┼─────────────────────┼─────────────┼─────────────────────┤
│ conv3_block6_1_relu    │ (None, 28, 28, 128) │           0 │ conv3_block6_1_bn[… │
│ (Activation)           │                     │             │                     │
├────────────────────────┼─────────────────────┼─────────────┼─────────────────────┤
│ conv3_block6_2_conv    │ (None, 28, 28, 32)  │      36,864 │ conv3_block6_1_rel… │
│ (Conv2D)               │                     │             │                     │
├────────────────────────┼─────────────────────┼─────────────┼─────────────────────┤
│ conv3_block6_concat    │ (None, 28, 28, 320) │           0 │ conv3_block5_conca… │
│ (Concatenate)          │                     │             │ conv3_block6_2_con… │
├────────────────────────┼─────────────────────┼─────────────┼─────────────────────┤
│ conv3_block7_0_bn      │ (None, 28, 28, 320) │       1,280 │ conv3_block6_conca… │
│ (BatchNormalization)   │                     │             │                     │
├────────────────────────┼─────────────────────┼─────────────┼─────────────────────┤
│ conv3_block7_0_relu    │ (None, 28, 28, 320) │           0 │ conv3_block7_0_bn[… │
│ (Activation)           │                     │             │                     │
├────────────────────────┼─────────────────────┼─────────────┼─────────────────────┤
│ conv3_block7_1_conv    │ (None, 28, 28, 128) │      40,960 │ conv3_block7_0_rel… │
│ (Conv2D)               │                     │             │                     │
├────────────────────────┼─────────────────────┼─────────────┼─────────────────────┤
│ conv3_block7_1_bn      │ (None, 28, 28, 128) │         512 │ conv3_block7_1_con… │
│ (BatchNormalization)   │                     │             │                     │
├────────────────────────┼─────────────────────┼─────────────┼─────────────────────┤
│ conv3_block7_1_relu    │ (None, 28, 28, 128) │           0 │ conv3_block7_1_bn[… │
│ (Activation)           │                     │             │                     │
├────────────────────────┼─────────────────────┼─────────────┼─────────────────────┤
│ conv3_block7_2_conv    │ (None, 28, 28, 32)  │      36,864 │ conv3_block7_1_rel… │
│ (Conv2D)               │                     │             │                     │
├────────────────────────┼─────────────────────┼─────────────┼─────────────────────┤
│ conv3_block7_concat    │ (None, 28, 28, 352) │           0 │ conv3_block6_conca… │
│ (Concatenate)          │                     │             │ conv3_block7_2_con… │
├────────────────────────┼─────────────────────┼─────────────┼─────────────────────┤
│ conv3_block8_0_bn      │ (None, 28, 28, 352) │       1,408 │ conv3_block7_conca… │
│ (BatchNormalization)   │                     │             │                     │
├────────────────────────┼─────────────────────┼─────────────┼─────────────────────┤
│ conv3_block8_0_relu    │ (None, 28, 28, 352) │           0 │ conv3_block8_0_bn[… │
│ (Activation)           │                     │             │                     │
├────────────────────────┼─────────────────────┼─────────────┼─────────────────────┤
│ conv3_block8_1_conv    │ (None, 28, 28, 128) │      45,056 │ conv3_block8_0_rel… │
│ (Conv2D)               │                     │             │                     │
├────────────────────────┼─────────────────────┼─────────────┼─────────────────────┤
│ conv3_block8_1_bn      │ (None, 28, 28, 128) │         512 │ conv3_block8_1_con… │
│ (BatchNormalization)   │                     │             │                     │
├────────────────────────┼─────────────────────┼─────────────┼─────────────────────┤
│ conv3_block8_1_relu    │ (None, 28, 28, 128) │           0 │ conv3_block8_1_bn[… │
│ (Activation)           │                     │             │                     │
├────────────────────────┼─────────────────────┼─────────────┼─────────────────────┤
│ conv3_block8_2_conv    │ (None, 28, 28, 32)  │      36,864 │ conv3_block8_1_rel… │
│ (Conv2D)               │                     │             │                     │
├────────────────────────┼─────────────────────┼─────────────┼─────────────────────┤
│ conv3_block8_concat    │ (None, 28, 28, 384) │           0 │ conv3_block7_conca… │
│ (Concatenate)          │                     │             │ conv3_block8_2_con… │
├────────────────────────┼─────────────────────┼─────────────┼─────────────────────┤
│ conv3_block9_0_bn      │ (None, 28, 28, 384) │       1,536 │ conv3_block8_conca… │
│ (BatchNormalization)   │                     │             │                     │
├────────────────────────┼─────────────────────┼─────────────┼─────────────────────┤
│ conv3_block9_0_relu    │ (None, 28, 28, 384) │           0 │ conv3_block9_0_bn[… │
│ (Activation)           │                     │             │                     │
├────────────────────────┼─────────────────────┼─────────────┼─────────────────────┤
│ conv3_block9_1_conv    │ (None, 28, 28, 128) │      49,152 │ conv3_block9_0_rel… │
│ (Conv2D)               │                     │             │                     │
├────────────────────────┼─────────────────────┼─────────────┼─────────────────────┤
│ conv3_block9_1_bn      │ (None, 28, 28, 128) │         512 │ conv3_block9_1_con… │
│ (BatchNormalization)   │                     │             │                     │
├────────────────────────┼─────────────────────┼─────────────┼─────────────────────┤
│ conv3_block9_1_relu    │ (None, 28, 28, 128) │           0 │ conv3_block9_1_bn[… │
│ (Activation)           │                     │             │                     │
├────────────────────────┼─────────────────────┼─────────────┼─────────────────────┤
│ conv3_block9_2_conv    │ (None, 28, 28, 32)  │      36,864 │ conv3_block9_1_rel… │
│ (Conv2D)               │                     │             │                     │
├────────────────────────┼─────────────────────┼─────────────┼─────────────────────┤
│ conv3_block9_concat    │ (None, 28, 28, 416) │           0 │ conv3_block8_conca… │
│ (Concatenate)          │                     │             │ conv3_block9_2_con… │
├────────────────────────┼─────────────────────┼─────────────┼─────────────────────┤
│ conv3_block10_0_bn     │ (None, 28, 28, 416) │       1,664 │ conv3_block9_conca… │
│ (BatchNormalization)   │                     │             │                     │
├────────────────────────┼─────────────────────┼─────────────┼─────────────────────┤
│ conv3_block10_0_relu   │ (None, 28, 28, 416) │           0 │ conv3_block10_0_bn… │
│ (Activation)           │                     │             │                     │
├────────────────────────┼─────────────────────┼─────────────┼─────────────────────┤
│ conv3_block10_1_conv   │ (None, 28, 28, 128) │      53,248 │ conv3_block10_0_re… │
│ (Conv2D)               │                     │             │                     │
├────────────────────────┼─────────────────────┼─────────────┼─────────────────────┤
│ conv3_block10_1_bn     │ (None, 28, 28, 128) │         512 │ conv3_block10_1_co… │
│ (BatchNormalization)   │                     │             │                     │
├────────────────────────┼─────────────────────┼─────────────┼─────────────────────┤
│ conv3_block10_1_relu   │ (None, 28, 28, 128) │           0 │ conv3_block10_1_bn… │
│ (Activation)           │                     │             │                     │
├────────────────────────┼─────────────────────┼─────────────┼─────────────────────┤
│ conv3_block10_2_conv   │ (None, 28, 28, 32)  │      36,864 │ conv3_block10_1_re… │
│ (Conv2D)               │                     │             │                     │
├────────────────────────┼─────────────────────┼─────────────┼─────────────────────┤
│ conv3_block10_concat   │ (None, 28, 28, 448) │           0 │ conv3_block9_conca… │
│ (Concatenate)          │                     │             │ conv3_block10_2_co… │
├────────────────────────┼─────────────────────┼─────────────┼─────────────────────┤
│ conv3_block11_0_bn     │ (None, 28, 28, 448) │       1,792 │ conv3_block10_conc… │
│ (BatchNormalization)   │                     │             │                     │
├────────────────────────┼─────────────────────┼─────────────┼─────────────────────┤
│ conv3_block11_0_relu   │ (None, 28, 28, 448) │           0 │ conv3_block11_0_bn… │
│ (Activation)           │                     │             │                     │
├────────────────────────┼─────────────────────┼─────────────┼─────────────────────┤
│ conv3_block11_1_conv   │ (None, 28, 28, 128) │      57,344 │ conv3_block11_0_re… │
│ (Conv2D)               │                     │             │                     │
├────────────────────────┼─────────────────────┼─────────────┼─────────────────────┤
│ conv3_block11_1_bn     │ (None, 28, 28, 128) │         512 │ conv3_block11_1_co… │
│ (BatchNormalization)   │                     │             │                     │
├────────────────────────┼─────────────────────┼─────────────┼─────────────────────┤
│ conv3_block11_1_relu   │ (None, 28, 28, 128) │           0 │ conv3_block11_1_bn… │
│ (Activation)           │                     │             │                     │
├────────────────────────┼─────────────────────┼─────────────┼─────────────────────┤
│ conv3_block11_2_conv   │ (None, 28, 28, 32)  │      36,864 │ conv3_block11_1_re… │
│ (Conv2D)               │                     │             │                     │
├────────────────────────┼─────────────────────┼─────────────┼─────────────────────┤
│ conv3_block11_concat   │ (None, 28, 28, 480) │           0 │ conv3_block10_conc… │
│ (Concatenate)          │                     │             │ conv3_block11_2_co… │
├────────────────────────┼─────────────────────┼─────────────┼─────────────────────┤
│ conv3_block12_0_bn     │ (None, 28, 28, 480) │       1,920 │ conv3_block11_conc… │
│ (BatchNormalization)   │                     │             │                     │
├────────────────────────┼─────────────────────┼─────────────┼─────────────────────┤
│ conv3_block12_0_relu   │ (None, 28, 28, 480) │           0 │ conv3_block12_0_bn… │
│ (Activation)           │                     │             │                     │
├────────────────────────┼─────────────────────┼─────────────┼─────────────────────┤
│ conv3_block12_1_conv   │ (None, 28, 28, 128) │      61,440 │ conv3_block12_0_re… │
│ (Conv2D)               │                     │             │                     │
├────────────────────────┼─────────────────────┼─────────────┼─────────────────────┤
│ conv3_block12_1_bn     │ (None, 28, 28, 128) │         512 │ conv3_block12_1_co… │
│ (BatchNormalization)   │                     │             │                     │
├────────────────────────┼─────────────────────┼─────────────┼─────────────────────┤
│ conv3_block12_1_relu   │ (None, 28, 28, 128) │           0 │ conv3_block12_1_bn… │
│ (Activation)           │                     │             │                     │
├────────────────────────┼─────────────────────┼─────────────┼─────────────────────┤
│ conv3_block12_2_conv   │ (None, 28, 28, 32)  │      36,864 │ conv3_block12_1_re… │
│ (Conv2D)               │                     │             │                     │
├────────────────────────┼─────────────────────┼─────────────┼─────────────────────┤
│ conv3_block12_concat   │ (None, 28, 28, 512) │           0 │ conv3_block11_conc… │
│ (Concatenate)          │                     │             │ conv3_block12_2_co… │
├────────────────────────┼─────────────────────┼─────────────┼─────────────────────┤
│ pool3_bn               │ (None, 28, 28, 512) │       2,048 │ conv3_block12_conc… │
│ (BatchNormalization)   │                     │             │                     │
├────────────────────────┼─────────────────────┼─────────────┼─────────────────────┤
│ pool3_relu             │ (None, 28, 28, 512) │           0 │ pool3_bn[0][0]      │
│ (Activation)           │                     │             │                     │
├────────────────────────┼─────────────────────┼─────────────┼─────────────────────┤
│ pool3_conv (Conv2D)    │ (None, 28, 28, 256) │     131,072 │ pool3_relu[0][0]    │
├────────────────────────┼─────────────────────┼─────────────┼─────────────────────┤
│ pool3_pool             │ (None, 14, 14, 256) │           0 │ pool3_conv[0][0]    │
│ (AveragePooling2D)     │                     │             │                     │
├────────────────────────┼─────────────────────┼─────────────┼─────────────────────┤
│ conv4_block1_0_bn      │ (None, 14, 14, 256) │       1,024 │ pool3_pool[0][0]    │
│ (BatchNormalization)   │                     │             │                     │
├────────────────────────┼─────────────────────┼─────────────┼─────────────────────┤
│ conv4_block1_0_relu    │ (None, 14, 14, 256) │           0 │ conv4_block1_0_bn[… │
│ (Activation)           │                     │             │                     │
├────────────────────────┼─────────────────────┼─────────────┼─────────────────────┤
│ conv4_block1_1_conv    │ (None, 14, 14, 128) │      32,768 │ conv4_block1_0_rel… │
│ (Conv2D)               │                     │             │                     │
├────────────────────────┼─────────────────────┼─────────────┼─────────────────────┤
│ conv4_block1_1_bn      │ (None, 14, 14, 128) │         512 │ conv4_block1_1_con… │
│ (BatchNormalization)   │                     │             │                     │
├────────────────────────┼─────────────────────┼─────────────┼─────────────────────┤
│ conv4_block1_1_relu    │ (None, 14, 14, 128) │           0 │ conv4_block1_1_bn[… │
│ (Activation)           │                     │             │                     │
├────────────────────────┼─────────────────────┼─────────────┼─────────────────────┤
│ conv4_block1_2_conv    │ (None, 14, 14, 32)  │      36,864 │ conv4_block1_1_rel… │
│ (Conv2D)               │                     │             │                     │
├────────────────────────┼─────────────────────┼─────────────┼─────────────────────┤
│ conv4_block1_concat    │ (None, 14, 14, 288) │           0 │ pool3_pool[0][0],   │
│ (Concatenate)          │                     │             │ conv4_block1_2_con… │
├────────────────────────┼─────────────────────┼─────────────┼─────────────────────┤
│ conv4_block2_0_bn      │ (None, 14, 14, 288) │       1,152 │ conv4_block1_conca… │
│ (BatchNormalization)   │                     │             │                     │
├────────────────────────┼─────────────────────┼─────────────┼─────────────────────┤
│ conv4_block2_0_relu    │ (None, 14, 14, 288) │           0 │ conv4_block2_0_bn[… │
│ (Activation)           │                     │             │                     │
├────────────────────────┼─────────────────────┼─────────────┼─────────────────────┤
│ conv4_block2_1_conv    │ (None, 14, 14, 128) │      36,864 │ conv4_block2_0_rel… │
│ (Conv2D)               │                     │             │                     │
├────────────────────────┼─────────────────────┼─────────────┼─────────────────────┤
│ conv4_block2_1_bn      │ (None, 14, 14, 128) │         512 │ conv4_block2_1_con… │
│ (BatchNormalization)   │                     │             │                     │
├────────────────────────┼─────────────────────┼─────────────┼─────────────────────┤
│ conv4_block2_1_relu    │ (None, 14, 14, 128) │           0 │ conv4_block2_1_bn[… │
│ (Activation)           │                     │             │                     │
├────────────────────────┼─────────────────────┼─────────────┼─────────────────────┤
│ conv4_block2_2_conv    │ (None, 14, 14, 32)  │      36,864 │ conv4_block2_1_rel… │
│ (Conv2D)               │                     │             │                     │
├────────────────────────┼─────────────────────┼─────────────┼─────────────────────┤
│ conv4_block2_concat    │ (None, 14, 14, 320) │           0 │ conv4_block1_conca… │
│ (Concatenate)          │                     │             │ conv4_block2_2_con… │
├────────────────────────┼─────────────────────┼─────────────┼─────────────────────┤
│ conv4_block3_0_bn      │ (None, 14, 14, 320) │       1,280 │ conv4_block2_conca… │
│ (BatchNormalization)   │                     │             │                     │
├────────────────────────┼─────────────────────┼─────────────┼─────────────────────┤
│ conv4_block3_0_relu    │ (None, 14, 14, 320) │           0 │ conv4_block3_0_bn[… │
│ (Activation)           │                     │             │                     │
├────────────────────────┼─────────────────────┼─────────────┼─────────────────────┤
│ conv4_block3_1_conv    │ (None, 14, 14, 128) │      40,960 │ conv4_block3_0_rel… │
│ (Conv2D)               │                     │             │                     │
├────────────────────────┼─────────────────────┼─────────────┼─────────────────────┤
│ conv4_block3_1_bn      │ (None, 14, 14, 128) │         512 │ conv4_block3_1_con… │
│ (BatchNormalization)   │                     │             │                     │
├────────────────────────┼─────────────────────┼─────────────┼─────────────────────┤
│ conv4_block3_1_relu    │ (None, 14, 14, 128) │           0 │ conv4_block3_1_bn[… │
│ (Activation)           │                     │             │                     │
├────────────────────────┼─────────────────────┼─────────────┼─────────────────────┤
│ conv4_block3_2_conv    │ (None, 14, 14, 32)  │      36,864 │ conv4_block3_1_rel… │
│ (Conv2D)               │                     │             │                     │
├────────────────────────┼─────────────────────┼─────────────┼─────────────────────┤
│ conv4_block3_concat    │ (None, 14, 14, 352) │           0 │ conv4_block2_conca… │
│ (Concatenate)          │                     │             │ conv4_block3_2_con… │
├────────────────────────┼─────────────────────┼─────────────┼─────────────────────┤
│ conv4_block4_0_bn      │ (None, 14, 14, 352) │       1,408 │ conv4_block3_conca… │
│ (BatchNormalization)   │                     │             │                     │
├────────────────────────┼─────────────────────┼─────────────┼─────────────────────┤
│ conv4_block4_0_relu    │ (None, 14, 14, 352) │           0 │ conv4_block4_0_bn[… │
│ (Activation)           │                     │             │                     │
├────────────────────────┼─────────────────────┼─────────────┼─────────────────────┤
│ conv4_block4_1_conv    │ (None, 14, 14, 128) │      45,056 │ conv4_block4_0_rel… │
│ (Conv2D)               │                     │             │                     │
├────────────────────────┼─────────────────────┼─────────────┼─────────────────────┤
│ conv4_block4_1_bn      │ (None, 14, 14, 128) │         512 │ conv4_block4_1_con… │
│ (BatchNormalization)   │                     │             │                     │
├────────────────────────┼─────────────────────┼─────────────┼─────────────────────┤
│ conv4_block4_1_relu    │ (None, 14, 14, 128) │           0 │ conv4_block4_1_bn[… │
│ (Activation)           │                     │             │                     │
├────────────────────────┼─────────────────────┼─────────────┼─────────────────────┤
│ conv4_block4_2_conv    │ (None, 14, 14, 32)  │      36,864 │ conv4_block4_1_rel… │
│ (Conv2D)               │                     │             │                     │
├────────────────────────┼─────────────────────┼─────────────┼─────────────────────┤
│ conv4_block4_concat    │ (None, 14, 14, 384) │           0 │ conv4_block3_conca… │
│ (Concatenate)          │                     │             │ conv4_block4_2_con… │
├────────────────────────┼─────────────────────┼─────────────┼─────────────────────┤
│ conv4_block5_0_bn      │ (None, 14, 14, 384) │       1,536 │ conv4_block4_conca… │
│ (BatchNormalization)   │                     │             │                     │
├────────────────────────┼─────────────────────┼─────────────┼─────────────────────┤
│ conv4_block5_0_relu    │ (None, 14, 14, 384) │           0 │ conv4_block5_0_bn[… │
│ (Activation)           │                     │             │                     │
├────────────────────────┼─────────────────────┼─────────────┼─────────────────────┤
│ conv4_block5_1_conv    │ (None, 14, 14, 128) │      49,152 │ conv4_block5_0_rel… │
│ (Conv2D)               │                     │             │                     │
├────────────────────────┼─────────────────────┼─────────────┼─────────────────────┤
│ conv4_block5_1_bn      │ (None, 14, 14, 128) │         512 │ conv4_block5_1_con… │
│ (BatchNormalization)   │                     │             │                     │
├────────────────────────┼─────────────────────┼─────────────┼─────────────────────┤
│ conv4_block5_1_relu    │ (None, 14, 14, 128) │           0 │ conv4_block5_1_bn[… │
│ (Activation)           │                     │             │                     │
├────────────────────────┼─────────────────────┼─────────────┼─────────────────────┤
│ conv4_block5_2_conv    │ (None, 14, 14, 32)  │      36,864 │ conv4_block5_1_rel… │
│ (Conv2D)               │                     │             │                     │
├────────────────────────┼─────────────────────┼─────────────┼─────────────────────┤
│ conv4_block5_concat    │ (None, 14, 14, 416) │           0 │ conv4_block4_conca… │
│ (Concatenate)          │                     │             │ conv4_block5_2_con… │
├────────────────────────┼─────────────────────┼─────────────┼─────────────────────┤
│ conv4_block6_0_bn      │ (None, 14, 14, 416) │       1,664 │ conv4_block5_conca… │
│ (BatchNormalization)   │                     │             │                     │
├────────────────────────┼─────────────────────┼─────────────┼─────────────────────┤
│ conv4_block6_0_relu    │ (None, 14, 14, 416) │           0 │ conv4_block6_0_bn[… │
│ (Activation)           │                     │             │                     │
├────────────────────────┼─────────────────────┼─────────────┼─────────────────────┤
│ conv4_block6_1_conv    │ (None, 14, 14, 128) │      53,248 │ conv4_block6_0_rel… │
│ (Conv2D)               │                     │             │                     │
├────────────────────────┼─────────────────────┼─────────────┼─────────────────────┤
│ conv4_block6_1_bn      │ (None, 14, 14, 128) │         512 │ conv4_block6_1_con… │
│ (BatchNormalization)   │                     │             │                     │
├────────────────────────┼─────────────────────┼─────────────┼─────────────────────┤
│ conv4_block6_1_relu    │ (None, 14, 14, 128) │           0 │ conv4_block6_1_bn[… │
│ (Activation)           │                     │             │                     │
├────────────────────────┼─────────────────────┼─────────────┼─────────────────────┤
│ conv4_block6_2_conv    │ (None, 14, 14, 32)  │      36,864 │ conv4_block6_1_rel… │
│ (Conv2D)               │                     │             │                     │
├────────────────────────┼─────────────────────┼─────────────┼─────────────────────┤
│ conv4_block6_concat    │ (None, 14, 14, 448) │           0 │ conv4_block5_conca… │
│ (Concatenate)          │                     │             │ conv4_block6_2_con… │
├────────────────────────┼─────────────────────┼─────────────┼─────────────────────┤
│ conv4_block7_0_bn      │ (None, 14, 14, 448) │       1,792 │ conv4_block6_conca… │
│ (BatchNormalization)   │                     │             │                     │
├────────────────────────┼─────────────────────┼─────────────┼─────────────────────┤
│ conv4_block7_0_relu    │ (None, 14, 14, 448) │           0 │ conv4_block7_0_bn[… │
│ (Activation)           │                     │             │                     │
├────────────────────────┼─────────────────────┼─────────────┼─────────────────────┤
│ conv4_block7_1_conv    │ (None, 14, 14, 128) │      57,344 │ conv4_block7_0_rel… │
│ (Conv2D)               │                     │             │                     │
├────────────────────────┼─────────────────────┼─────────────┼─────────────────────┤
│ conv4_block7_1_bn      │ (None, 14, 14, 128) │         512 │ conv4_block7_1_con… │
│ (BatchNormalization)   │                     │             │                     │
├────────────────────────┼─────────────────────┼─────────────┼─────────────────────┤
│ conv4_block7_1_relu    │ (None, 14, 14, 128) │           0 │ conv4_block7_1_bn[… │
│ (Activation)           │                     │             │                     │
├────────────────────────┼─────────────────────┼─────────────┼─────────────────────┤
│ conv4_block7_2_conv    │ (None, 14, 14, 32)  │      36,864 │ conv4_block7_1_rel… │
│ (Conv2D)               │                     │             │                     │
├────────────────────────┼─────────────────────┼─────────────┼─────────────────────┤
│ conv4_block7_concat    │ (None, 14, 14, 480) │           0 │ conv4_block6_conca… │
│ (Concatenate)          │                     │             │ conv4_block7_2_con… │
├────────────────────────┼─────────────────────┼─────────────┼─────────────────────┤
│ conv4_block8_0_bn      │ (None, 14, 14, 480) │       1,920 │ conv4_block7_conca… │
│ (BatchNormalization)   │                     │             │                     │
├────────────────────────┼─────────────────────┼─────────────┼─────────────────────┤
│ conv4_block8_0_relu    │ (None, 14, 14, 480) │           0 │ conv4_block8_0_bn[… │
│ (Activation)           │                     │             │                     │
├────────────────────────┼─────────────────────┼─────────────┼─────────────────────┤
│ conv4_block8_1_conv    │ (None, 14, 14, 128) │      61,440 │ conv4_block8_0_rel… │
│ (Conv2D)               │                     │             │                     │
├────────────────────────┼─────────────────────┼─────────────┼─────────────────────┤
│ conv4_block8_1_bn      │ (None, 14, 14, 128) │         512 │ conv4_block8_1_con… │
│ (BatchNormalization)   │                     │             │                     │
├────────────────────────┼─────────────────────┼─────────────┼─────────────────────┤
│ conv4_block8_1_relu    │ (None, 14, 14, 128) │           0 │ conv4_block8_1_bn[… │
│ (Activation)           │                     │             │                     │
├────────────────────────┼─────────────────────┼─────────────┼─────────────────────┤
│ conv4_block8_2_conv    │ (None, 14, 14, 32)  │      36,864 │ conv4_block8_1_rel… │
│ (Conv2D)               │                     │             │                     │
├────────────────────────┼─────────────────────┼─────────────┼─────────────────────┤
│ conv4_block8_concat    │ (None, 14, 14, 512) │           0 │ conv4_block7_conca… │
│ (Concatenate)          │                     │             │ conv4_block8_2_con… │
├────────────────────────┼─────────────────────┼─────────────┼─────────────────────┤
│ conv4_block9_0_bn      │ (None, 14, 14, 512) │       2,048 │ conv4_block8_conca… │
│ (BatchNormalization)   │                     │             │                     │
├────────────────────────┼─────────────────────┼─────────────┼─────────────────────┤
│ conv4_block9_0_relu    │ (None, 14, 14, 512) │           0 │ conv4_block9_0_bn[… │
│ (Activation)           │                     │             │                     │
├────────────────────────┼─────────────────────┼─────────────┼─────────────────────┤
│ conv4_block9_1_conv    │ (None, 14, 14, 128) │      65,536 │ conv4_block9_0_rel… │
│ (Conv2D)               │                     │             │                     │
├────────────────────────┼─────────────────────┼─────────────┼─────────────────────┤
│ conv4_block9_1_bn      │ (None, 14, 14, 128) │         512 │ conv4_block9_1_con… │
│ (BatchNormalization)   │                     │             │                     │
├────────────────────────┼─────────────────────┼─────────────┼─────────────────────┤
│ conv4_block9_1_relu    │ (None, 14, 14, 128) │           0 │ conv4_block9_1_bn[… │
│ (Activation)           │                     │             │                     │
├────────────────────────┼─────────────────────┼─────────────┼─────────────────────┤
│ conv4_block9_2_conv    │ (None, 14, 14, 32)  │      36,864 │ conv4_block9_1_rel… │
│ (Conv2D)               │                     │             │                     │
├────────────────────────┼─────────────────────┼─────────────┼─────────────────────┤
│ conv4_block9_concat    │ (None, 14, 14, 544) │           0 │ conv4_block8_conca… │
│ (Concatenate)          │                     │             │ conv4_block9_2_con… │
├────────────────────────┼─────────────────────┼─────────────┼─────────────────────┤
│ conv4_block10_0_bn     │ (None, 14, 14, 544) │       2,176 │ conv4_block9_conca… │
│ (BatchNormalization)   │                     │             │                     │
├────────────────────────┼─────────────────────┼─────────────┼─────────────────────┤
│ conv4_block10_0_relu   │ (None, 14, 14, 544) │           0 │ conv4_block10_0_bn… │
│ (Activation)           │                     │             │                     │
├────────────────────────┼─────────────────────┼─────────────┼─────────────────────┤
│ conv4_block10_1_conv   │ (None, 14, 14, 128) │      69,632 │ conv4_block10_0_re… │
│ (Conv2D)               │                     │             │                     │
├────────────────────────┼─────────────────────┼─────────────┼─────────────────────┤
│ conv4_block10_1_bn     │ (None, 14, 14, 128) │         512 │ conv4_block10_1_co… │
│ (BatchNormalization)   │                     │             │                     │
├────────────────────────┼─────────────────────┼─────────────┼─────────────────────┤
│ conv4_block10_1_relu   │ (None, 14, 14, 128) │           0 │ conv4_block10_1_bn… │
│ (Activation)           │                     │             │                     │
├────────────────────────┼─────────────────────┼─────────────┼─────────────────────┤
│ conv4_block10_2_conv   │ (None, 14, 14, 32)  │      36,864 │ conv4_block10_1_re… │
│ (Conv2D)               │                     │             │                     │
├────────────────────────┼─────────────────────┼─────────────┼─────────────────────┤
│ conv4_block10_concat   │ (None, 14, 14, 576) │           0 │ conv4_block9_conca… │
│ (Concatenate)          │                     │             │ conv4_block10_2_co… │
├────────────────────────┼─────────────────────┼─────────────┼─────────────────────┤
│ conv4_block11_0_bn     │ (None, 14, 14, 576) │       2,304 │ conv4_block10_conc… │
│ (BatchNormalization)   │                     │             │                     │
├────────────────────────┼─────────────────────┼─────────────┼─────────────────────┤
│ conv4_block11_0_relu   │ (None, 14, 14, 576) │           0 │ conv4_block11_0_bn… │
│ (Activation)           │                     │             │                     │
├────────────────────────┼─────────────────────┼─────────────┼─────────────────────┤
│ conv4_block11_1_conv   │ (None, 14, 14, 128) │      73,728 │ conv4_block11_0_re… │
│ (Conv2D)               │                     │             │                     │
├────────────────────────┼─────────────────────┼─────────────┼─────────────────────┤
│ conv4_block11_1_bn     │ (None, 14, 14, 128) │         512 │ conv4_block11_1_co… │
│ (BatchNormalization)   │                     │             │                     │
├────────────────────────┼─────────────────────┼─────────────┼─────────────────────┤
│ conv4_block11_1_relu   │ (None, 14, 14, 128) │           0 │ conv4_block11_1_bn… │
│ (Activation)           │                     │             │                     │
├────────────────────────┼─────────────────────┼─────────────┼─────────────────────┤
│ conv4_block11_2_conv   │ (None, 14, 14, 32)  │      36,864 │ conv4_block11_1_re… │
│ (Conv2D)               │                     │             │                     │
├────────────────────────┼─────────────────────┼─────────────┼─────────────────────┤
│ conv4_block11_concat   │ (None, 14, 14, 608) │           0 │ conv4_block10_conc… │
│ (Concatenate)          │                     │             │ conv4_block11_2_co… │
├────────────────────────┼─────────────────────┼─────────────┼─────────────────────┤
│ conv4_block12_0_bn     │ (None, 14, 14, 608) │       2,432 │ conv4_block11_conc… │
│ (BatchNormalization)   │                     │             │                     │
├────────────────────────┼─────────────────────┼─────────────┼─────────────────────┤
│ conv4_block12_0_relu   │ (None, 14, 14, 608) │           0 │ conv4_block12_0_bn… │
│ (Activation)           │                     │             │                     │
├────────────────────────┼─────────────────────┼─────────────┼─────────────────────┤
│ conv4_block12_1_conv   │ (None, 14, 14, 128) │      77,824 │ conv4_block12_0_re… │
│ (Conv2D)               │                     │             │                     │
├────────────────────────┼─────────────────────┼─────────────┼─────────────────────┤
│ conv4_block12_1_bn     │ (None, 14, 14, 128) │         512 │ conv4_block12_1_co… │
│ (BatchNormalization)   │                     │             │                     │
├────────────────────────┼─────────────────────┼─────────────┼─────────────────────┤
│ conv4_block12_1_relu   │ (None, 14, 14, 128) │           0 │ conv4_block12_1_bn… │
│ (Activation)           │                     │             │                     │
├────────────────────────┼─────────────────────┼─────────────┼─────────────────────┤
│ conv4_block12_2_conv   │ (None, 14, 14, 32)  │      36,864 │ conv4_block12_1_re… │
│ (Conv2D)               │                     │             │                     │
├────────────────────────┼─────────────────────┼─────────────┼─────────────────────┤
│ conv4_block12_concat   │ (None, 14, 14, 640) │           0 │ conv4_block11_conc… │
│ (Concatenate)          │                     │             │ conv4_block12_2_co… │
├────────────────────────┼─────────────────────┼─────────────┼─────────────────────┤
│ conv4_block13_0_bn     │ (None, 14, 14, 640) │       2,560 │ conv4_block12_conc… │
│ (BatchNormalization)   │                     │             │                     │
├────────────────────────┼─────────────────────┼─────────────┼─────────────────────┤
│ conv4_block13_0_relu   │ (None, 14, 14, 640) │           0 │ conv4_block13_0_bn… │
│ (Activation)           │                     │             │                     │
├────────────────────────┼─────────────────────┼─────────────┼─────────────────────┤
│ conv4_block13_1_conv   │ (None, 14, 14, 128) │      81,920 │ conv4_block13_0_re… │
│ (Conv2D)               │                     │             │                     │
├────────────────────────┼─────────────────────┼─────────────┼─────────────────────┤
│ conv4_block13_1_bn     │ (None, 14, 14, 128) │         512 │ conv4_block13_1_co… │
│ (BatchNormalization)   │                     │             │                     │
├────────────────────────┼─────────────────────┼─────────────┼─────────────────────┤
│ conv4_block13_1_relu   │ (None, 14, 14, 128) │           0 │ conv4_block13_1_bn… │
│ (Activation)           │                     │             │                     │
├────────────────────────┼─────────────────────┼─────────────┼─────────────────────┤
│ conv4_block13_2_conv   │ (None, 14, 14, 32)  │      36,864 │ conv4_block13_1_re… │
│ (Conv2D)               │                     │             │                     │
├────────────────────────┼─────────────────────┼─────────────┼─────────────────────┤
│ conv4_block13_concat   │ (None, 14, 14, 672) │           0 │ conv4_block12_conc… │
│ (Concatenate)          │                     │             │ conv4_block13_2_co… │
├────────────────────────┼─────────────────────┼─────────────┼─────────────────────┤
│ conv4_block14_0_bn     │ (None, 14, 14, 672) │       2,688 │ conv4_block13_conc… │
│ (BatchNormalization)   │                     │             │                     │
├────────────────────────┼─────────────────────┼─────────────┼─────────────────────┤
│ conv4_block14_0_relu   │ (None, 14, 14, 672) │           0 │ conv4_block14_0_bn… │
│ (Activation)           │                     │             │                     │
├────────────────────────┼─────────────────────┼─────────────┼─────────────────────┤
│ conv4_block14_1_conv   │ (None, 14, 14, 128) │      86,016 │ conv4_block14_0_re… │
│ (Conv2D)               │                     │             │                     │
├────────────────────────┼─────────────────────┼─────────────┼─────────────────────┤
│ conv4_block14_1_bn     │ (None, 14, 14, 128) │         512 │ conv4_block14_1_co… │
│ (BatchNormalization)   │                     │             │                     │
├────────────────────────┼─────────────────────┼─────────────┼─────────────────────┤
│ conv4_block14_1_relu   │ (None, 14, 14, 128) │           0 │ conv4_block14_1_bn… │
│ (Activation)           │                     │             │                     │
├────────────────────────┼─────────────────────┼─────────────┼─────────────────────┤
│ conv4_block14_2_conv   │ (None, 14, 14, 32)  │      36,864 │ conv4_block14_1_re… │
│ (Conv2D)               │                     │             │                     │
├────────────────────────┼─────────────────────┼─────────────┼─────────────────────┤
│ conv4_block14_concat   │ (None, 14, 14, 704) │           0 │ conv4_block13_conc… │
│ (Concatenate)          │                     │             │ conv4_block14_2_co… │
├────────────────────────┼─────────────────────┼─────────────┼─────────────────────┤
│ conv4_block15_0_bn     │ (None, 14, 14, 704) │       2,816 │ conv4_block14_conc… │
│ (BatchNormalization)   │                     │             │                     │
├────────────────────────┼─────────────────────┼─────────────┼─────────────────────┤
│ conv4_block15_0_relu   │ (None, 14, 14, 704) │           0 │ conv4_block15_0_bn… │
│ (Activation)           │                     │             │                     │
├────────────────────────┼─────────────────────┼─────────────┼─────────────────────┤
│ conv4_block15_1_conv   │ (None, 14, 14, 128) │      90,112 │ conv4_block15_0_re… │
│ (Conv2D)               │                     │             │                     │
├────────────────────────┼─────────────────────┼─────────────┼─────────────────────┤
│ conv4_block15_1_bn     │ (None, 14, 14, 128) │         512 │ conv4_block15_1_co… │
│ (BatchNormalization)   │                     │             │                     │
├────────────────────────┼─────────────────────┼─────────────┼─────────────────────┤
│ conv4_block15_1_relu   │ (None, 14, 14, 128) │           0 │ conv4_block15_1_bn… │
│ (Activation)           │                     │             │                     │
├────────────────────────┼─────────────────────┼─────────────┼─────────────────────┤
│ conv4_block15_2_conv   │ (None, 14, 14, 32)  │      36,864 │ conv4_block15_1_re… │
│ (Conv2D)               │                     │             │                     │
├────────────────────────┼─────────────────────┼─────────────┼─────────────────────┤
│ conv4_block15_concat   │ (None, 14, 14, 736) │           0 │ conv4_block14_conc… │
│ (Concatenate)          │                     │             │ conv4_block15_2_co… │
├────────────────────────┼─────────────────────┼─────────────┼─────────────────────┤
│ conv4_block16_0_bn     │ (None, 14, 14, 736) │       2,944 │ conv4_block15_conc… │
│ (BatchNormalization)   │                     │             │                     │
├────────────────────────┼─────────────────────┼─────────────┼─────────────────────┤
│ conv4_block16_0_relu   │ (None, 14, 14, 736) │           0 │ conv4_block16_0_bn… │
│ (Activation)           │                     │             │                     │
├────────────────────────┼─────────────────────┼─────────────┼─────────────────────┤
│ conv4_block16_1_conv   │ (None, 14, 14, 128) │      94,208 │ conv4_block16_0_re… │
│ (Conv2D)               │                     │             │                     │
├────────────────────────┼─────────────────────┼─────────────┼─────────────────────┤
│ conv4_block16_1_bn     │ (None, 14, 14, 128) │         512 │ conv4_block16_1_co… │
│ (BatchNormalization)   │                     │             │                     │
├────────────────────────┼─────────────────────┼─────────────┼─────────────────────┤
│ conv4_block16_1_relu   │ (None, 14, 14, 128) │           0 │ conv4_block16_1_bn… │
│ (Activation)           │                     │             │                     │
├────────────────────────┼─────────────────────┼─────────────┼─────────────────────┤
│ conv4_block16_2_conv   │ (None, 14, 14, 32)  │      36,864 │ conv4_block16_1_re… │
│ (Conv2D)               │                     │             │                     │
├────────────────────────┼─────────────────────┼─────────────┼─────────────────────┤
│ conv4_block16_concat   │ (None, 14, 14, 768) │           0 │ conv4_block15_conc… │
│ (Concatenate)          │                     │             │ conv4_block16_2_co… │
├────────────────────────┼─────────────────────┼─────────────┼─────────────────────┤
│ conv4_block17_0_bn     │ (None, 14, 14, 768) │       3,072 │ conv4_block16_conc… │
│ (BatchNormalization)   │                     │             │                     │
├────────────────────────┼─────────────────────┼─────────────┼─────────────────────┤
│ conv4_block17_0_relu   │ (None, 14, 14, 768) │           0 │ conv4_block17_0_bn… │
│ (Activation)           │                     │             │                     │
├────────────────────────┼─────────────────────┼─────────────┼─────────────────────┤
│ conv4_block17_1_conv   │ (None, 14, 14, 128) │      98,304 │ conv4_block17_0_re… │
│ (Conv2D)               │                     │             │                     │
├────────────────────────┼─────────────────────┼─────────────┼─────────────────────┤
│ conv4_block17_1_bn     │ (None, 14, 14, 128) │         512 │ conv4_block17_1_co… │
│ (BatchNormalization)   │                     │             │                     │
├────────────────────────┼─────────────────────┼─────────────┼─────────────────────┤
│ conv4_block17_1_relu   │ (None, 14, 14, 128) │           0 │ conv4_block17_1_bn… │
│ (Activation)           │                     │             │                     │
├────────────────────────┼─────────────────────┼─────────────┼─────────────────────┤
│ conv4_block17_2_conv   │ (None, 14, 14, 32)  │      36,864 │ conv4_block17_1_re… │
│ (Conv2D)               │                     │             │                     │
├────────────────────────┼─────────────────────┼─────────────┼─────────────────────┤
│ conv4_block17_concat   │ (None, 14, 14, 800) │           0 │ conv4_block16_conc… │
│ (Concatenate)          │                     │             │ conv4_block17_2_co… │
├────────────────────────┼─────────────────────┼─────────────┼─────────────────────┤
│ conv4_block18_0_bn     │ (None, 14, 14, 800) │       3,200 │ conv4_block17_conc… │
│ (BatchNormalization)   │                     │             │                     │
├────────────────────────┼─────────────────────┼─────────────┼─────────────────────┤
│ conv4_block18_0_relu   │ (None, 14, 14, 800) │           0 │ conv4_block18_0_bn… │
│ (Activation)           │                     │             │                     │
├────────────────────────┼─────────────────────┼─────────────┼─────────────────────┤
│ conv4_block18_1_conv   │ (None, 14, 14, 128) │     102,400 │ conv4_block18_0_re… │
│ (Conv2D)               │                     │             │                     │
├────────────────────────┼─────────────────────┼─────────────┼─────────────────────┤
│ conv4_block18_1_bn     │ (None, 14, 14, 128) │         512 │ conv4_block18_1_co… │
│ (BatchNormalization)   │                     │             │                     │
├────────────────────────┼─────────────────────┼─────────────┼─────────────────────┤
│ conv4_block18_1_relu   │ (None, 14, 14, 128) │           0 │ conv4_block18_1_bn… │
│ (Activation)           │                     │             │                     │
├────────────────────────┼─────────────────────┼─────────────┼─────────────────────┤
│ conv4_block18_2_conv   │ (None, 14, 14, 32)  │      36,864 │ conv4_block18_1_re… │
│ (Conv2D)               │                     │             │                     │
├────────────────────────┼─────────────────────┼─────────────┼─────────────────────┤
│ conv4_block18_concat   │ (None, 14, 14, 832) │           0 │ conv4_block17_conc… │
│ (Concatenate)          │                     │             │ conv4_block18_2_co… │
├────────────────────────┼─────────────────────┼─────────────┼─────────────────────┤
│ conv4_block19_0_bn     │ (None, 14, 14, 832) │       3,328 │ conv4_block18_conc… │
│ (BatchNormalization)   │                     │             │                     │
├────────────────────────┼─────────────────────┼─────────────┼─────────────────────┤
│ conv4_block19_0_relu   │ (None, 14, 14, 832) │           0 │ conv4_block19_0_bn… │
│ (Activation)           │                     │             │                     │
├────────────────────────┼─────────────────────┼─────────────┼─────────────────────┤
│ conv4_block19_1_conv   │ (None, 14, 14, 128) │     106,496 │ conv4_block19_0_re… │
│ (Conv2D)               │                     │             │                     │
├────────────────────────┼─────────────────────┼─────────────┼─────────────────────┤
│ conv4_block19_1_bn     │ (None, 14, 14, 128) │         512 │ conv4_block19_1_co… │
│ (BatchNormalization)   │                     │             │                     │
├────────────────────────┼─────────────────────┼─────────────┼─────────────────────┤
│ conv4_block19_1_relu   │ (None, 14, 14, 128) │           0 │ conv4_block19_1_bn… │
│ (Activation)           │                     │             │                     │
├────────────────────────┼─────────────────────┼─────────────┼─────────────────────┤
│ conv4_block19_2_conv   │ (None, 14, 14, 32)  │      36,864 │ conv4_block19_1_re… │
│ (Conv2D)               │                     │             │                     │
├────────────────────────┼─────────────────────┼─────────────┼─────────────────────┤
│ conv4_block19_concat   │ (None, 14, 14, 864) │           0 │ conv4_block18_conc… │
│ (Concatenate)          │                     │             │ conv4_block19_2_co… │
├────────────────────────┼─────────────────────┼─────────────┼─────────────────────┤
│ conv4_block20_0_bn     │ (None, 14, 14, 864) │       3,456 │ conv4_block19_conc… │
│ (BatchNormalization)   │                     │             │                     │
├────────────────────────┼─────────────────────┼─────────────┼─────────────────────┤
│ conv4_block20_0_relu   │ (None, 14, 14, 864) │           0 │ conv4_block20_0_bn… │
│ (Activation)           │                     │             │                     │
├────────────────────────┼─────────────────────┼─────────────┼─────────────────────┤
│ conv4_block20_1_conv   │ (None, 14, 14, 128) │     110,592 │ conv4_block20_0_re… │
│ (Conv2D)               │                     │             │                     │
├────────────────────────┼─────────────────────┼─────────────┼─────────────────────┤
│ conv4_block20_1_bn     │ (None, 14, 14, 128) │         512 │ conv4_block20_1_co… │
│ (BatchNormalization)   │                     │             │                     │
├────────────────────────┼─────────────────────┼─────────────┼─────────────────────┤
│ conv4_block20_1_relu   │ (None, 14, 14, 128) │           0 │ conv4_block20_1_bn… │
│ (Activation)           │                     │             │                     │
├────────────────────────┼─────────────────────┼─────────────┼─────────────────────┤
│ conv4_block20_2_conv   │ (None, 14, 14, 32)  │      36,864 │ conv4_block20_1_re… │
│ (Conv2D)               │                     │             │                     │
├────────────────────────┼─────────────────────┼─────────────┼─────────────────────┤
│ conv4_block20_concat   │ (None, 14, 14, 896) │           0 │ conv4_block19_conc… │
│ (Concatenate)          │                     │             │ conv4_block20_2_co… │
├────────────────────────┼─────────────────────┼─────────────┼─────────────────────┤
│ conv4_block21_0_bn     │ (None, 14, 14, 896) │       3,584 │ conv4_block20_conc… │
│ (BatchNormalization)   │                     │             │                     │
├────────────────────────┼─────────────────────┼─────────────┼─────────────────────┤
│ conv4_block21_0_relu   │ (None, 14, 14, 896) │           0 │ conv4_block21_0_bn… │
│ (Activation)           │                     │             │                     │
├────────────────────────┼─────────────────────┼─────────────┼─────────────────────┤
│ conv4_block21_1_conv   │ (None, 14, 14, 128) │     114,688 │ conv4_block21_0_re… │
│ (Conv2D)               │                     │             │                     │
├────────────────────────┼─────────────────────┼─────────────┼─────────────────────┤
│ conv4_block21_1_bn     │ (None, 14, 14, 128) │         512 │ conv4_block21_1_co… │
│ (BatchNormalization)   │                     │             │                     │
├────────────────────────┼─────────────────────┼─────────────┼─────────────────────┤
│ conv4_block21_1_relu   │ (None, 14, 14, 128) │           0 │ conv4_block21_1_bn… │
│ (Activation)           │                     │             │                     │
├────────────────────────┼─────────────────────┼─────────────┼─────────────────────┤
│ conv4_block21_2_conv   │ (None, 14, 14, 32)  │      36,864 │ conv4_block21_1_re… │
│ (Conv2D)               │                     │             │                     │
├────────────────────────┼─────────────────────┼─────────────┼─────────────────────┤
│ conv4_block21_concat   │ (None, 14, 14, 928) │           0 │ conv4_block20_conc… │
│ (Concatenate)          │                     │             │ conv4_block21_2_co… │
├────────────────────────┼─────────────────────┼─────────────┼─────────────────────┤
│ conv4_block22_0_bn     │ (None, 14, 14, 928) │       3,712 │ conv4_block21_conc… │
│ (BatchNormalization)   │                     │             │                     │
├────────────────────────┼─────────────────────┼─────────────┼─────────────────────┤
│ conv4_block22_0_relu   │ (None, 14, 14, 928) │           0 │ conv4_block22_0_bn… │
│ (Activation)           │                     │             │                     │
├────────────────────────┼─────────────────────┼─────────────┼─────────────────────┤
│ conv4_block22_1_conv   │ (None, 14, 14, 128) │     118,784 │ conv4_block22_0_re… │
│ (Conv2D)               │                     │             │                     │
├────────────────────────┼─────────────────────┼─────────────┼─────────────────────┤
│ conv4_block22_1_bn     │ (None, 14, 14, 128) │         512 │ conv4_block22_1_co… │
│ (BatchNormalization)   │                     │             │                     │
├────────────────────────┼─────────────────────┼─────────────┼─────────────────────┤
│ conv4_block22_1_relu   │ (None, 14, 14, 128) │           0 │ conv4_block22_1_bn… │
│ (Activation)           │                     │             │                     │
├────────────────────────┼─────────────────────┼─────────────┼─────────────────────┤
│ conv4_block22_2_conv   │ (None, 14, 14, 32)  │      36,864 │ conv4_block22_1_re… │
│ (Conv2D)               │                     │             │                     │
├────────────────────────┼─────────────────────┼─────────────┼─────────────────────┤
│ conv4_block22_concat   │ (None, 14, 14, 960) │           0 │ conv4_block21_conc… │
│ (Concatenate)          │                     │             │ conv4_block22_2_co… │
├────────────────────────┼─────────────────────┼─────────────┼─────────────────────┤
│ conv4_block23_0_bn     │ (None, 14, 14, 960) │       3,840 │ conv4_block22_conc… │
│ (BatchNormalization)   │                     │             │                     │
├────────────────────────┼─────────────────────┼─────────────┼─────────────────────┤
│ conv4_block23_0_relu   │ (None, 14, 14, 960) │           0 │ conv4_block23_0_bn… │
│ (Activation)           │                     │             │                     │
├────────────────────────┼─────────────────────┼─────────────┼─────────────────────┤
│ conv4_block23_1_conv   │ (None, 14, 14, 128) │     122,880 │ conv4_block23_0_re… │
│ (Conv2D)               │                     │             │                     │
├────────────────────────┼─────────────────────┼─────────────┼─────────────────────┤
│ conv4_block23_1_bn     │ (None, 14, 14, 128) │         512 │ conv4_block23_1_co… │
│ (BatchNormalization)   │                     │             │                     │
├────────────────────────┼─────────────────────┼─────────────┼─────────────────────┤
│ conv4_block23_1_relu   │ (None, 14, 14, 128) │           0 │ conv4_block23_1_bn… │
│ (Activation)           │                     │             │                     │
├────────────────────────┼─────────────────────┼─────────────┼─────────────────────┤
│ conv4_block23_2_conv   │ (None, 14, 14, 32)  │      36,864 │ conv4_block23_1_re… │
│ (Conv2D)               │                     │             │                     │
├────────────────────────┼─────────────────────┼─────────────┼─────────────────────┤
│ conv4_block23_concat   │ (None, 14, 14, 992) │           0 │ conv4_block22_conc… │
│ (Concatenate)          │                     │             │ conv4_block23_2_co… │
├────────────────────────┼─────────────────────┼─────────────┼─────────────────────┤
│ conv4_block24_0_bn     │ (None, 14, 14, 992) │       3,968 │ conv4_block23_conc… │
│ (BatchNormalization)   │                     │             │                     │
├────────────────────────┼─────────────────────┼─────────────┼─────────────────────┤
│ conv4_block24_0_relu   │ (None, 14, 14, 992) │           0 │ conv4_block24_0_bn… │
│ (Activation)           │                     │             │                     │
├────────────────────────┼─────────────────────┼─────────────┼─────────────────────┤
│ conv4_block24_1_conv   │ (None, 14, 14, 128) │     126,976 │ conv4_block24_0_re… │
│ (Conv2D)               │                     │             │                     │
├────────────────────────┼─────────────────────┼─────────────┼─────────────────────┤
│ conv4_block24_1_bn     │ (None, 14, 14, 128) │         512 │ conv4_block24_1_co… │
│ (BatchNormalization)   │                     │             │                     │
├────────────────────────┼─────────────────────┼─────────────┼─────────────────────┤
│ conv4_block24_1_relu   │ (None, 14, 14, 128) │           0 │ conv4_block24_1_bn… │
│ (Activation)           │                     │             │                     │
├────────────────────────┼─────────────────────┼─────────────┼─────────────────────┤
│ conv4_block24_2_conv   │ (None, 14, 14, 32)  │      36,864 │ conv4_block24_1_re… │
│ (Conv2D)               │                     │             │                     │
├────────────────────────┼─────────────────────┼─────────────┼─────────────────────┤
│ conv4_block24_concat   │ (None, 14, 14,      │           0 │ conv4_block23_conc… │
│ (Concatenate)          │ 1024)               │             │ conv4_block24_2_co… │
├────────────────────────┼─────────────────────┼─────────────┼─────────────────────┤
│ pool4_bn               │ (None, 14, 14,      │       4,096 │ conv4_block24_conc… │
│ (BatchNormalization)   │ 1024)               │             │                     │
├────────────────────────┼─────────────────────┼─────────────┼─────────────────────┤
│ pool4_relu             │ (None, 14, 14,      │           0 │ pool4_bn[0][0]      │
│ (Activation)           │ 1024)               │             │                     │
├────────────────────────┼─────────────────────┼─────────────┼─────────────────────┤
│ pool4_conv (Conv2D)    │ (None, 14, 14, 512) │     524,288 │ pool4_relu[0][0]    │
├────────────────────────┼─────────────────────┼─────────────┼─────────────────────┤
│ pool4_pool             │ (None, 7, 7, 512)   │           0 │ pool4_conv[0][0]    │
│ (AveragePooling2D)     │                     │             │                     │
├────────────────────────┼─────────────────────┼─────────────┼─────────────────────┤
│ conv5_block1_0_bn      │ (None, 7, 7, 512)   │       2,048 │ pool4_pool[0][0]    │
│ (BatchNormalization)   │                     │             │                     │
├────────────────────────┼─────────────────────┼─────────────┼─────────────────────┤
│ conv5_block1_0_relu    │ (None, 7, 7, 512)   │           0 │ conv5_block1_0_bn[… │
│ (Activation)           │                     │             │                     │
├────────────────────────┼─────────────────────┼─────────────┼─────────────────────┤
│ conv5_block1_1_conv    │ (None, 7, 7, 128)   │      65,536 │ conv5_block1_0_rel… │
│ (Conv2D)               │                     │             │                     │
├────────────────────────┼─────────────────────┼─────────────┼─────────────────────┤
│ conv5_block1_1_bn      │ (None, 7, 7, 128)   │         512 │ conv5_block1_1_con… │
│ (BatchNormalization)   │                     │             │                     │
├────────────────────────┼─────────────────────┼─────────────┼─────────────────────┤
│ conv5_block1_1_relu    │ (None, 7, 7, 128)   │           0 │ conv5_block1_1_bn[… │
│ (Activation)           │                     │             │                     │
├────────────────────────┼─────────────────────┼─────────────┼─────────────────────┤
│ conv5_block1_2_conv    │ (None, 7, 7, 32)    │      36,864 │ conv5_block1_1_rel… │
│ (Conv2D)               │                     │             │                     │
├────────────────────────┼─────────────────────┼─────────────┼─────────────────────┤
│ conv5_block1_concat    │ (None, 7, 7, 544)   │           0 │ pool4_pool[0][0],   │
│ (Concatenate)          │                     │             │ conv5_block1_2_con… │
├────────────────────────┼─────────────────────┼─────────────┼─────────────────────┤
│ conv5_block2_0_bn      │ (None, 7, 7, 544)   │       2,176 │ conv5_block1_conca… │
│ (BatchNormalization)   │                     │             │                     │
├────────────────────────┼─────────────────────┼─────────────┼─────────────────────┤
│ conv5_block2_0_relu    │ (None, 7, 7, 544)   │           0 │ conv5_block2_0_bn[… │
│ (Activation)           │                     │             │                     │
├────────────────────────┼─────────────────────┼─────────────┼─────────────────────┤
│ conv5_block2_1_conv    │ (None, 7, 7, 128)   │      69,632 │ conv5_block2_0_rel… │
│ (Conv2D)               │                     │             │                     │
├────────────────────────┼─────────────────────┼─────────────┼─────────────────────┤
│ conv5_block2_1_bn      │ (None, 7, 7, 128)   │         512 │ conv5_block2_1_con… │
│ (BatchNormalization)   │                     │             │                     │
├────────────────────────┼─────────────────────┼─────────────┼─────────────────────┤
│ conv5_block2_1_relu    │ (None, 7, 7, 128)   │           0 │ conv5_block2_1_bn[… │
│ (Activation)           │                     │             │                     │
├────────────────────────┼─────────────────────┼─────────────┼─────────────────────┤
│ conv5_block2_2_conv    │ (None, 7, 7, 32)    │      36,864 │ conv5_block2_1_rel… │
│ (Conv2D)               │                     │             │                     │
├────────────────────────┼─────────────────────┼─────────────┼─────────────────────┤
│ conv5_block2_concat    │ (None, 7, 7, 576)   │           0 │ conv5_block1_conca… │
│ (Concatenate)          │                     │             │ conv5_block2_2_con… │
├────────────────────────┼─────────────────────┼─────────────┼─────────────────────┤
│ conv5_block3_0_bn      │ (None, 7, 7, 576)   │       2,304 │ conv5_block2_conca… │
│ (BatchNormalization)   │                     │             │                     │
├────────────────────────┼─────────────────────┼─────────────┼─────────────────────┤
│ conv5_block3_0_relu    │ (None, 7, 7, 576)   │           0 │ conv5_block3_0_bn[… │
│ (Activation)           │                     │             │                     │
├────────────────────────┼─────────────────────┼─────────────┼─────────────────────┤
│ conv5_block3_1_conv    │ (None, 7, 7, 128)   │      73,728 │ conv5_block3_0_rel… │
│ (Conv2D)               │                     │             │                     │
├────────────────────────┼─────────────────────┼─────────────┼─────────────────────┤
│ conv5_block3_1_bn      │ (None, 7, 7, 128)   │         512 │ conv5_block3_1_con… │
│ (BatchNormalization)   │                     │             │                     │
├────────────────────────┼─────────────────────┼─────────────┼─────────────────────┤
│ conv5_block3_1_relu    │ (None, 7, 7, 128)   │           0 │ conv5_block3_1_bn[… │
│ (Activation)           │                     │             │                     │
├────────────────────────┼─────────────────────┼─────────────┼─────────────────────┤
│ conv5_block3_2_conv    │ (None, 7, 7, 32)    │      36,864 │ conv5_block3_1_rel… │
│ (Conv2D)               │                     │             │                     │
├────────────────────────┼─────────────────────┼─────────────┼─────────────────────┤
│ conv5_block3_concat    │ (None, 7, 7, 608)   │           0 │ conv5_block2_conca… │
│ (Concatenate)          │                     │             │ conv5_block3_2_con… │
├────────────────────────┼─────────────────────┼─────────────┼─────────────────────┤
│ conv5_block4_0_bn      │ (None, 7, 7, 608)   │       2,432 │ conv5_block3_conca… │
│ (BatchNormalization)   │                     │             │                     │
├────────────────────────┼─────────────────────┼─────────────┼─────────────────────┤
│ conv5_block4_0_relu    │ (None, 7, 7, 608)   │           0 │ conv5_block4_0_bn[… │
│ (Activation)           │                     │             │                     │
├────────────────────────┼─────────────────────┼─────────────┼─────────────────────┤
│ conv5_block4_1_conv    │ (None, 7, 7, 128)   │      77,824 │ conv5_block4_0_rel… │
│ (Conv2D)               │                     │             │                     │
├────────────────────────┼─────────────────────┼─────────────┼─────────────────────┤
│ conv5_block4_1_bn      │ (None, 7, 7, 128)   │         512 │ conv5_block4_1_con… │
│ (BatchNormalization)   │                     │             │                     │
├────────────────────────┼─────────────────────┼─────────────┼─────────────────────┤
│ conv5_block4_1_relu    │ (None, 7, 7, 128)   │           0 │ conv5_block4_1_bn[… │
│ (Activation)           │                     │             │                     │
├────────────────────────┼─────────────────────┼─────────────┼─────────────────────┤
│ conv5_block4_2_conv    │ (None, 7, 7, 32)    │      36,864 │ conv5_block4_1_rel… │
│ (Conv2D)               │                     │             │                     │
├────────────────────────┼─────────────────────┼─────────────┼─────────────────────┤
│ conv5_block4_concat    │ (None, 7, 7, 640)   │           0 │ conv5_block3_conca… │
│ (Concatenate)          │                     │             │ conv5_block4_2_con… │
├────────────────────────┼─────────────────────┼─────────────┼─────────────────────┤
│ conv5_block5_0_bn      │ (None, 7, 7, 640)   │       2,560 │ conv5_block4_conca… │
│ (BatchNormalization)   │                     │             │                     │
├────────────────────────┼─────────────────────┼─────────────┼─────────────────────┤
│ conv5_block5_0_relu    │ (None, 7, 7, 640)   │           0 │ conv5_block5_0_bn[… │
│ (Activation)           │                     │             │                     │
├────────────────────────┼─────────────────────┼─────────────┼─────────────────────┤
│ conv5_block5_1_conv    │ (None, 7, 7, 128)   │      81,920 │ conv5_block5_0_rel… │
│ (Conv2D)               │                     │             │                     │
├────────────────────────┼─────────────────────┼─────────────┼─────────────────────┤
│ conv5_block5_1_bn      │ (None, 7, 7, 128)   │         512 │ conv5_block5_1_con… │
│ (BatchNormalization)   │                     │             │                     │
├────────────────────────┼─────────────────────┼─────────────┼─────────────────────┤
│ conv5_block5_1_relu    │ (None, 7, 7, 128)   │           0 │ conv5_block5_1_bn[… │
│ (Activation)           │                     │             │                     │
├────────────────────────┼─────────────────────┼─────────────┼─────────────────────┤
│ conv5_block5_2_conv    │ (None, 7, 7, 32)    │      36,864 │ conv5_block5_1_rel… │
│ (Conv2D)               │                     │             │                     │
├────────────────────────┼─────────────────────┼─────────────┼─────────────────────┤
│ conv5_block5_concat    │ (None, 7, 7, 672)   │           0 │ conv5_block4_conca… │
│ (Concatenate)          │                     │             │ conv5_block5_2_con… │
├────────────────────────┼─────────────────────┼─────────────┼─────────────────────┤
│ conv5_block6_0_bn      │ (None, 7, 7, 672)   │       2,688 │ conv5_block5_conca… │
│ (BatchNormalization)   │                     │             │                     │
├────────────────────────┼─────────────────────┼─────────────┼─────────────────────┤
│ conv5_block6_0_relu    │ (None, 7, 7, 672)   │           0 │ conv5_block6_0_bn[… │
│ (Activation)           │                     │             │                     │
├────────────────────────┼─────────────────────┼─────────────┼─────────────────────┤
│ conv5_block6_1_conv    │ (None, 7, 7, 128)   │      86,016 │ conv5_block6_0_rel… │
│ (Conv2D)               │                     │             │                     │
├────────────────────────┼─────────────────────┼─────────────┼─────────────────────┤
│ conv5_block6_1_bn      │ (None, 7, 7, 128)   │         512 │ conv5_block6_1_con… │
│ (BatchNormalization)   │                     │             │                     │
├────────────────────────┼─────────────────────┼─────────────┼─────────────────────┤
│ conv5_block6_1_relu    │ (None, 7, 7, 128)   │           0 │ conv5_block6_1_bn[… │
│ (Activation)           │                     │             │                     │
├────────────────────────┼─────────────────────┼─────────────┼─────────────────────┤
│ conv5_block6_2_conv    │ (None, 7, 7, 32)    │      36,864 │ conv5_block6_1_rel… │
│ (Conv2D)               │                     │             │                     │
├────────────────────────┼─────────────────────┼─────────────┼─────────────────────┤
│ conv5_block6_concat    │ (None, 7, 7, 704)   │           0 │ conv5_block5_conca… │
│ (Concatenate)          │                     │             │ conv5_block6_2_con… │
├────────────────────────┼─────────────────────┼─────────────┼─────────────────────┤
│ conv5_block7_0_bn      │ (None, 7, 7, 704)   │       2,816 │ conv5_block6_conca… │
│ (BatchNormalization)   │                     │             │                     │
├────────────────────────┼─────────────────────┼─────────────┼─────────────────────┤
│ conv5_block7_0_relu    │ (None, 7, 7, 704)   │           0 │ conv5_block7_0_bn[… │
│ (Activation)           │                     │             │                     │
├────────────────────────┼─────────────────────┼─────────────┼─────────────────────┤
│ conv5_block7_1_conv    │ (None, 7, 7, 128)   │      90,112 │ conv5_block7_0_rel… │
│ (Conv2D)               │                     │             │                     │
├────────────────────────┼─────────────────────┼─────────────┼─────────────────────┤
│ conv5_block7_1_bn      │ (None, 7, 7, 128)   │         512 │ conv5_block7_1_con… │
│ (BatchNormalization)   │                     │             │                     │
├────────────────────────┼─────────────────────┼─────────────┼─────────────────────┤
│ conv5_block7_1_relu    │ (None, 7, 7, 128)   │           0 │ conv5_block7_1_bn[… │
│ (Activation)           │                     │             │                     │
├────────────────────────┼─────────────────────┼─────────────┼─────────────────────┤
│ conv5_block7_2_conv    │ (None, 7, 7, 32)    │      36,864 │ conv5_block7_1_rel… │
│ (Conv2D)               │                     │             │                     │
├────────────────────────┼─────────────────────┼─────────────┼─────────────────────┤
│ conv5_block7_concat    │ (None, 7, 7, 736)   │           0 │ conv5_block6_conca… │
│ (Concatenate)          │                     │             │ conv5_block7_2_con… │
├────────────────────────┼─────────────────────┼─────────────┼─────────────────────┤
│ conv5_block8_0_bn      │ (None, 7, 7, 736)   │       2,944 │ conv5_block7_conca… │
│ (BatchNormalization)   │                     │             │                     │
├────────────────────────┼─────────────────────┼─────────────┼─────────────────────┤
│ conv5_block8_0_relu    │ (None, 7, 7, 736)   │           0 │ conv5_block8_0_bn[… │
│ (Activation)           │                     │             │                     │
├────────────────────────┼─────────────────────┼─────────────┼─────────────────────┤
│ conv5_block8_1_conv    │ (None, 7, 7, 128)   │      94,208 │ conv5_block8_0_rel… │
│ (Conv2D)               │                     │             │                     │
├────────────────────────┼─────────────────────┼─────────────┼─────────────────────┤
│ conv5_block8_1_bn      │ (None, 7, 7, 128)   │         512 │ conv5_block8_1_con… │
│ (BatchNormalization)   │                     │             │                     │
├────────────────────────┼─────────────────────┼─────────────┼─────────────────────┤
│ conv5_block8_1_relu    │ (None, 7, 7, 128)   │           0 │ conv5_block8_1_bn[… │
│ (Activation)           │                     │             │                     │
├────────────────────────┼─────────────────────┼─────────────┼─────────────────────┤
│ conv5_block8_2_conv    │ (None, 7, 7, 32)    │      36,864 │ conv5_block8_1_rel… │
│ (Conv2D)               │                     │             │                     │
├────────────────────────┼─────────────────────┼─────────────┼─────────────────────┤
│ conv5_block8_concat    │ (None, 7, 7, 768)   │           0 │ conv5_block7_conca… │
│ (Concatenate)          │                     │             │ conv5_block8_2_con… │
├────────────────────────┼─────────────────────┼─────────────┼─────────────────────┤
│ conv5_block9_0_bn      │ (None, 7, 7, 768)   │       3,072 │ conv5_block8_conca… │
│ (BatchNormalization)   │                     │             │                     │
├────────────────────────┼─────────────────────┼─────────────┼─────────────────────┤
│ conv5_block9_0_relu    │ (None, 7, 7, 768)   │           0 │ conv5_block9_0_bn[… │
│ (Activation)           │                     │             │                     │
├────────────────────────┼─────────────────────┼─────────────┼─────────────────────┤
│ conv5_block9_1_conv    │ (None, 7, 7, 128)   │      98,304 │ conv5_block9_0_rel… │
│ (Conv2D)               │                     │             │                     │
├────────────────────────┼─────────────────────┼─────────────┼─────────────────────┤
│ conv5_block9_1_bn      │ (None, 7, 7, 128)   │         512 │ conv5_block9_1_con… │
│ (BatchNormalization)   │                     │             │                     │
├────────────────────────┼─────────────────────┼─────────────┼─────────────────────┤
│ conv5_block9_1_relu    │ (None, 7, 7, 128)   │           0 │ conv5_block9_1_bn[… │
│ (Activation)           │                     │             │                     │
├────────────────────────┼─────────────────────┼─────────────┼─────────────────────┤
│ conv5_block9_2_conv    │ (None, 7, 7, 32)    │      36,864 │ conv5_block9_1_rel… │
│ (Conv2D)               │                     │             │                     │
├────────────────────────┼─────────────────────┼─────────────┼─────────────────────┤
│ conv5_block9_concat    │ (None, 7, 7, 800)   │           0 │ conv5_block8_conca… │
│ (Concatenate)          │                     │             │ conv5_block9_2_con… │
├────────────────────────┼─────────────────────┼─────────────┼─────────────────────┤
│ conv5_block10_0_bn     │ (None, 7, 7, 800)   │       3,200 │ conv5_block9_conca… │
│ (BatchNormalization)   │                     │             │                     │
├────────────────────────┼─────────────────────┼─────────────┼─────────────────────┤
│ conv5_block10_0_relu   │ (None, 7, 7, 800)   │           0 │ conv5_block10_0_bn… │
│ (Activation)           │                     │             │                     │
├────────────────────────┼─────────────────────┼─────────────┼─────────────────────┤
│ conv5_block10_1_conv   │ (None, 7, 7, 128)   │     102,400 │ conv5_block10_0_re… │
│ (Conv2D)               │                     │             │                     │
├────────────────────────┼─────────────────────┼─────────────┼─────────────────────┤
│ conv5_block10_1_bn     │ (None, 7, 7, 128)   │         512 │ conv5_block10_1_co… │
│ (BatchNormalization)   │                     │             │                     │
├────────────────────────┼─────────────────────┼─────────────┼─────────────────────┤
│ conv5_block10_1_relu   │ (None, 7, 7, 128)   │           0 │ conv5_block10_1_bn… │
│ (Activation)           │                     │             │                     │
├────────────────────────┼─────────────────────┼─────────────┼─────────────────────┤
│ conv5_block10_2_conv   │ (None, 7, 7, 32)    │      36,864 │ conv5_block10_1_re… │
│ (Conv2D)               │                     │             │                     │
├────────────────────────┼─────────────────────┼─────────────┼─────────────────────┤
│ conv5_block10_concat   │ (None, 7, 7, 832)   │           0 │ conv5_block9_conca… │
│ (Concatenate)          │                     │             │ conv5_block10_2_co… │
├────────────────────────┼─────────────────────┼─────────────┼─────────────────────┤
│ conv5_block11_0_bn     │ (None, 7, 7, 832)   │       3,328 │ conv5_block10_conc… │
│ (BatchNormalization)   │                     │             │                     │
├────────────────────────┼─────────────────────┼─────────────┼─────────────────────┤
│ conv5_block11_0_relu   │ (None, 7, 7, 832)   │           0 │ conv5_block11_0_bn… │
│ (Activation)           │                     │             │                     │
├────────────────────────┼─────────────────────┼─────────────┼─────────────────────┤
│ conv5_block11_1_conv   │ (None, 7, 7, 128)   │     106,496 │ conv5_block11_0_re… │
│ (Conv2D)               │                     │             │                     │
├────────────────────────┼─────────────────────┼─────────────┼─────────────────────┤
│ conv5_block11_1_bn     │ (None, 7, 7, 128)   │         512 │ conv5_block11_1_co… │
│ (BatchNormalization)   │                     │             │                     │
├────────────────────────┼─────────────────────┼─────────────┼─────────────────────┤
│ conv5_block11_1_relu   │ (None, 7, 7, 128)   │           0 │ conv5_block11_1_bn… │
│ (Activation)           │                     │             │                     │
├────────────────────────┼─────────────────────┼─────────────┼─────────────────────┤
│ conv5_block11_2_conv   │ (None, 7, 7, 32)    │      36,864 │ conv5_block11_1_re… │
│ (Conv2D)               │                     │             │                     │
├────────────────────────┼─────────────────────┼─────────────┼─────────────────────┤
│ conv5_block11_concat   │ (None, 7, 7, 864)   │           0 │ conv5_block10_conc… │
│ (Concatenate)          │                     │             │ conv5_block11_2_co… │
├────────────────────────┼─────────────────────┼─────────────┼─────────────────────┤
│ conv5_block12_0_bn     │ (None, 7, 7, 864)   │       3,456 │ conv5_block11_conc… │
│ (BatchNormalization)   │                     │             │                     │
├────────────────────────┼─────────────────────┼─────────────┼─────────────────────┤
│ conv5_block12_0_relu   │ (None, 7, 7, 864)   │           0 │ conv5_block12_0_bn… │
│ (Activation)           │                     │             │                     │
├────────────────────────┼─────────────────────┼─────────────┼─────────────────────┤
│ conv5_block12_1_conv   │ (None, 7, 7, 128)   │     110,592 │ conv5_block12_0_re… │
│ (Conv2D)               │                     │             │                     │
├────────────────────────┼─────────────────────┼─────────────┼─────────────────────┤
│ conv5_block12_1_bn     │ (None, 7, 7, 128)   │         512 │ conv5_block12_1_co… │
│ (BatchNormalization)   │                     │             │                     │
├────────────────────────┼─────────────────────┼─────────────┼─────────────────────┤
│ conv5_block12_1_relu   │ (None, 7, 7, 128)   │           0 │ conv5_block12_1_bn… │
│ (Activation)           │                     │             │                     │
├────────────────────────┼─────────────────────┼─────────────┼─────────────────────┤
│ conv5_block12_2_conv   │ (None, 7, 7, 32)    │      36,864 │ conv5_block12_1_re… │
│ (Conv2D)               │                     │             │                     │
├────────────────────────┼─────────────────────┼─────────────┼─────────────────────┤
│ conv5_block12_concat   │ (None, 7, 7, 896)   │           0 │ conv5_block11_conc… │
│ (Concatenate)          │                     │             │ conv5_block12_2_co… │
├────────────────────────┼─────────────────────┼─────────────┼─────────────────────┤
│ conv5_block13_0_bn     │ (None, 7, 7, 896)   │       3,584 │ conv5_block12_conc… │
│ (BatchNormalization)   │                     │             │                     │
├────────────────────────┼─────────────────────┼─────────────┼─────────────────────┤
│ conv5_block13_0_relu   │ (None, 7, 7, 896)   │           0 │ conv5_block13_0_bn… │
│ (Activation)           │                     │             │                     │
├────────────────────────┼─────────────────────┼─────────────┼─────────────────────┤
│ conv5_block13_1_conv   │ (None, 7, 7, 128)   │     114,688 │ conv5_block13_0_re… │
│ (Conv2D)               │                     │             │                     │
├────────────────────────┼─────────────────────┼─────────────┼─────────────────────┤
│ conv5_block13_1_bn     │ (None, 7, 7, 128)   │         512 │ conv5_block13_1_co… │
│ (BatchNormalization)   │                     │             │                     │
├────────────────────────┼─────────────────────┼─────────────┼─────────────────────┤
│ conv5_block13_1_relu   │ (None, 7, 7, 128)   │           0 │ conv5_block13_1_bn… │
│ (Activation)           │                     │             │                     │
├────────────────────────┼─────────────────────┼─────────────┼─────────────────────┤
│ conv5_block13_2_conv   │ (None, 7, 7, 32)    │      36,864 │ conv5_block13_1_re… │
│ (Conv2D)               │                     │             │                     │
├────────────────────────┼─────────────────────┼─────────────┼─────────────────────┤
│ conv5_block13_concat   │ (None, 7, 7, 928)   │           0 │ conv5_block12_conc… │
│ (Concatenate)          │                     │             │ conv5_block13_2_co… │
├────────────────────────┼─────────────────────┼─────────────┼─────────────────────┤
│ conv5_block14_0_bn     │ (None, 7, 7, 928)   │       3,712 │ conv5_block13_conc… │
│ (BatchNormalization)   │                     │             │                     │
├────────────────────────┼─────────────────────┼─────────────┼─────────────────────┤
│ conv5_block14_0_relu   │ (None, 7, 7, 928)   │           0 │ conv5_block14_0_bn… │
│ (Activation)           │                     │             │                     │
├────────────────────────┼─────────────────────┼─────────────┼─────────────────────┤
│ conv5_block14_1_conv   │ (None, 7, 7, 128)   │     118,784 │ conv5_block14_0_re… │
│ (Conv2D)               │                     │             │                     │
├────────────────────────┼─────────────────────┼─────────────┼─────────────────────┤
│ conv5_block14_1_bn     │ (None, 7, 7, 128)   │         512 │ conv5_block14_1_co… │
│ (BatchNormalization)   │                     │             │                     │
├────────────────────────┼─────────────────────┼─────────────┼─────────────────────┤
│ conv5_block14_1_relu   │ (None, 7, 7, 128)   │           0 │ conv5_block14_1_bn… │
│ (Activation)           │                     │             │                     │
├────────────────────────┼─────────────────────┼─────────────┼─────────────────────┤
│ conv5_block14_2_conv   │ (None, 7, 7, 32)    │      36,864 │ conv5_block14_1_re… │
│ (Conv2D)               │                     │             │                     │
├────────────────────────┼─────────────────────┼─────────────┼─────────────────────┤
│ conv5_block14_concat   │ (None, 7, 7, 960)   │           0 │ conv5_block13_conc… │
│ (Concatenate)          │                     │             │ conv5_block14_2_co… │
├────────────────────────┼─────────────────────┼─────────────┼─────────────────────┤
│ conv5_block15_0_bn     │ (None, 7, 7, 960)   │       3,840 │ conv5_block14_conc… │
│ (BatchNormalization)   │                     │             │                     │
├────────────────────────┼─────────────────────┼─────────────┼─────────────────────┤
│ conv5_block15_0_relu   │ (None, 7, 7, 960)   │           0 │ conv5_block15_0_bn… │
│ (Activation)           │                     │             │                     │
├────────────────────────┼─────────────────────┼─────────────┼─────────────────────┤
│ conv5_block15_1_conv   │ (None, 7, 7, 128)   │     122,880 │ conv5_block15_0_re… │
│ (Conv2D)               │                     │             │                     │
├────────────────────────┼─────────────────────┼─────────────┼─────────────────────┤
│ conv5_block15_1_bn     │ (None, 7, 7, 128)   │         512 │ conv5_block15_1_co… │
│ (BatchNormalization)   │                     │             │                     │
├────────────────────────┼─────────────────────┼─────────────┼─────────────────────┤
│ conv5_block15_1_relu   │ (None, 7, 7, 128)   │           0 │ conv5_block15_1_bn… │
│ (Activation)           │                     │             │                     │
├────────────────────────┼─────────────────────┼─────────────┼─────────────────────┤
│ conv5_block15_2_conv   │ (None, 7, 7, 32)    │      36,864 │ conv5_block15_1_re… │
│ (Conv2D)               │                     │             │                     │
├────────────────────────┼─────────────────────┼─────────────┼─────────────────────┤
│ conv5_block15_concat   │ (None, 7, 7, 992)   │           0 │ conv5_block14_conc… │
│ (Concatenate)          │                     │             │ conv5_block15_2_co… │
├────────────────────────┼─────────────────────┼─────────────┼─────────────────────┤
│ conv5_block16_0_bn     │ (None, 7, 7, 992)   │       3,968 │ conv5_block15_conc… │
│ (BatchNormalization)   │                     │             │                     │
├────────────────────────┼─────────────────────┼─────────────┼─────────────────────┤
│ conv5_block16_0_relu   │ (None, 7, 7, 992)   │           0 │ conv5_block16_0_bn… │
│ (Activation)           │                     │             │                     │
├────────────────────────┼─────────────────────┼─────────────┼─────────────────────┤
│ conv5_block16_1_conv   │ (None, 7, 7, 128)   │     126,976 │ conv5_block16_0_re… │
│ (Conv2D)               │                     │             │                     │
├────────────────────────┼─────────────────────┼─────────────┼─────────────────────┤
│ conv5_block16_1_bn     │ (None, 7, 7, 128)   │         512 │ conv5_block16_1_co… │
│ (BatchNormalization)   │                     │             │                     │
├────────────────────────┼─────────────────────┼─────────────┼─────────────────────┤
│ conv5_block16_1_relu   │ (None, 7, 7, 128)   │           0 │ conv5_block16_1_bn… │
│ (Activation)           │                     │             │                     │
├────────────────────────┼─────────────────────┼─────────────┼─────────────────────┤
│ conv5_block16_2_conv   │ (None, 7, 7, 32)    │      36,864 │ conv5_block16_1_re… │
│ (Conv2D)               │                     │             │                     │
├────────────────────────┼─────────────────────┼─────────────┼─────────────────────┤
│ conv5_block16_concat   │ (None, 7, 7, 1024)  │           0 │ conv5_block15_conc… │
│ (Concatenate)          │                     │             │ conv5_block16_2_co… │
├────────────────────────┼─────────────────────┼─────────────┼─────────────────────┤
│ bn                     │ (None, 7, 7, 1024)  │       4,096 │ conv5_block16_conc… │
│ (BatchNormalization)   │                     │             │                     │
├────────────────────────┼─────────────────────┼─────────────┼─────────────────────┤
│ relu (Activation)      │ (None, 7, 7, 1024)  │           0 │ bn[0][0]            │
├────────────────────────┼─────────────────────┼─────────────┼─────────────────────┤
│ global_average_poolin… │ (None, 1024)        │           0 │ relu[0][0]          │
│ (GlobalAveragePooling… │                     │             │                     │
├────────────────────────┼─────────────────────┼─────────────┼─────────────────────┤
│ batch_normalization    │ (None, 1024)        │       4,096 │ global_average_poo… │
│ (BatchNormalization)   │                     │             │                     │
├────────────────────────┼─────────────────────┼─────────────┼─────────────────────┤
│ dense_features (Dense) │ (None, 512)         │     524,800 │ batch_normalizatio… │
├────────────────────────┼─────────────────────┼─────────────┼─────────────────────┤
│ dropout (Dropout)      │ (None, 512)         │           0 │ dense_features[0][… │
├────────────────────────┼─────────────────────┼─────────────┼─────────────────────┤
│ dense_classifier       │ (None, 256)         │     131,328 │ dropout[0][0]       │
│ (Dense)                │                     │             │                     │
├────────────────────────┼─────────────────────┼─────────────┼─────────────────────┤
│ dropout_1 (Dropout)    │ (None, 256)         │           0 │ dense_classifier[0… │
├────────────────────────┼─────────────────────┼─────────────┼─────────────────────┤
│ predictions (Dense)    │ (None, 11)          │       2,827 │ dropout_1[0][0]     │
└────────────────────────┴─────────────────────┴─────────────┴─────────────────────┘
 Total params: 7,700,555 (29.38 MB)
 Trainable params: 7,269,771 (27.73 MB)
 Non-trainable params: 430,784 (1.64 MB)

